mtcnn_cv2/pnet.onnx (onnx, 28829 bytes, 13 tensors)

conv2d_4/kernel:0 f4 [4, 32, 1, 1]
000000 49 57 c0 bb 58 1d 7f 3c 7f f0 a3 3b 35 3a 81 bb
       -0.00586978 0.015570961 0.0050030346 -0.0039437064
000010 9b 06 3e 3b 4c 8d 0c 3d 6a 24 25 bb f4 5b 9a bc
       0.0028995636 0.03431444 -0.0025198706 -0.018842675
000020 71 a7 6b bc e2 23 26 bc a8 57 04 3b 4f a6 d7 3b
       -0.014383183 -0.010140391 0.0020193849 0.006581105
000030 a1 9c c8 bb d1 2b 17 bc a1 59 00 ba 80 9e 33 3b
       -0.0061221872 -0.009226755 -0.0004896168 0.0027407706
000040 55 07 0d bc f6 ea 4a 3e 6d 89 37 bd 11 d2 44 bd
       -0.008607705 0.19816193 -0.044808794 -0.048051897
000050 20 f2 1b 3b 1f b7 66 ba 6c c9 32 bc 55 ac c9 3b
       0.002379544 -0.0008801091 -0.0109122805 0.006154577
000060 d5 97 9f bb b6 ec 28 3b 61 c5 1f bd 8d bd 22 be
       -0.0048703947 0.0025775856 -0.039006595 -0.1589262
000070 34 24 81 3b 07 7f e7 3b 35 4c a7 3b 20 07 f7 3c
       0.0039410833 0.0070647034 0.00510552 0.030154765
000080 96 a0 0d bc 52 11 1b 3c 2b 38 a6 3b 22 3c f8 bb
       -0.008644244 0.009464579 0.0050726137 -0.0075755278
000090 35 03 4d 3a 07 e5 ea 3a 9d 72 62 bd 16 70 26 3d
       0.0007820607 0.0017921039 -0.055285085 0.040634237
0000a0 57 9f c4 bb 06 c1 89 bc d2 17 82 bb 66 c2 32 3c
       -0.00600044 -0.016815674 -0.0039701248 0.010910606
0000b0 ae 9f 31 3a ed 10 9b 3d fc b9 4b 39 be ff e6 3b
       0.0006775808 0.07571588 0.00019428873 0.00704953
0000c0 22 90 c9 bb 11 d0 44 3e 36 f1 01 be 53 ef 78 bc
       -0.006151215 0.19219996 -0.12689671 -0.015193778
0000d0 7a 20 b9 3b e7 3c 8e bb b2 c7 a3 bc 8c 48 1b 3c
       0.0056496235 -0.004340756 -0.019992683 0.009477746
0000e0 0a 54 81 bb 4f b8 fd 3b 77 c9 c0 bd e0 89 bb 3d
       -0.003946786 0.0077429186 -0.09413426 0.09157157
0000f0 56 77 84 3b 4e 03 96 3b 3c 73 4a 3b 5a af bd bc
       0.0040425463 0.0045780307 0.003089144 -0.023154903
000100 fa 02 97 3b 95 7d 97 3c 0f 52 12 bc e3 3a 24 3c
       0.004608509 0.0184925 -0.008930697 0.010023805
000110 6b ea 86 3b fe 6f e3 3b b1 bf 0e 3c 79 47 cb bd
       0.0041173003 0.0069408407 0.008712695 -0.09925742
000120 9c 45 6d 3c 2a e3 8f 3b 04 1a 87 3c ab 65 b7 bb
       0.014481928 0.0043910937 0.016491897 -0.0055968366
000130 fb ef a3 3b 28 87 1f 3c 91 59 ae 3a 84 bb b1 3a
       0.005002973 0.009736814 0.0013301839 0.0013559912
000140 76 a6 1a 3c be f5 91 3d 5a 75 0b 3e 02 69 94 bb
       0.009439101 0.0712695 0.13618985 -0.0045291195
000150 e8 de a2 bb 21 cb 0d 3b 70 64 04 3c a9 d3 8e bb
       -0.00497042 0.0021635967 0.008080587 -0.004358728
000160 58 37 8f 3b 9b 26 c3 3c 6f 9e 0f be 9b b2 5f bd
       0.004370611 0.02382212 -0.14025281 -0.05461369
000170 a6 74 b1 ba 56 1b 84 bb 86 95 9a ba 25 23 40 3d
       -0.0013538792 -0.004031579 -0.0011793829 0.046908516
000180 87 f0 c2 3b c5 0d 7f 3c a3 dd 00 bc f8 8f 14 3c
       0.0059490833 0.015567248 -0.007865342 0.009067528
000190 2a e5 19 3b 45 0a 0f bd fc 0b 3a bd ae 57 20 bd
       0.002348254 -0.034921903 -0.045421585 -0.039146118
0001a0 f4 29 21 3d 1a 30 bf b8 44 9f 9e 3c b5 80 41 bc
       0.03934665 -9.116549e-05 0.019363053 -0.011810471
0001b0 b9 49 1b 3c d5 3a f1 3d e1 01 b9 3a ae 1d ae 3b
       0.009478026 0.117787994 0.001411494 0.0053135967
0001c0 c3 67 c9 3b a4 5c 6d bd 21 2a 48 bd 83 91 d0 3c
       0.0061464026 -0.057949677 -0.048868302 0.02546001
0001d0 57 61 ef bb c9 8d 08 3c 11 12 b2 3b a9 7e c3 bb
       -0.007305305 0.008334585 0.0054342826 -0.005966027
0001e0 59 8d 31 3c d9 58 b3 3c 26 52 06 be b7 bc 20 3e
       0.010836923 0.021892952 -0.13117275 0.15696989
0001f0 78 5a 54 3b 89 a8 ed bb 45 4c 88 bb 34 6b 97 3c
       0.0032402556 -0.007252757 -0.0041594827 0.018483736

conv2d_4/bias:0 f4 [4]
000000 a6 9f b0 3c 7b 83 2f bd 6a 26 7a bd 1c ae 47 bc
       0.021560501 -0.04285 -0.06107179 -0.012187507

conv2d_3/kernel:0 f4 [2, 32, 1, 1]
000000 99 80 94 3d f1 3c f1 3d 78 5f 0e bf 3a 30 53 3d
       0.072510906 0.11779202 -0.55614424 0.051559664
000010 0c 48 3e 3e 76 e0 18 bd ba a9 0a 3e 29 b8 77 bd
       0.18582171 -0.037323438 0.13541308 -0.060478363
000020 8b 2e e9 be 50 61 a0 3e 00 7a 3f 3e 29 ad 9c be
       -0.45543322 0.31324244 0.18698883 -0.3060086
000030 59 db 99 3c 7a 72 fc 3d b6 59 b8 3e 9e 83 4f 3e
       0.01878135 0.12326522 0.36005944 0.20265052
000040 dd a5 bc 3e be c5 f6 ba 2c 01 98 be ed 92 39 3e
       0.36845294 -0.0018827242 -0.29688394 0.18122454
000050 94 ce b8 be 36 64 a3 bd 8e 24 10 be a6 e8 39 be
       -0.36095107 -0.07978098 -0.14076445 -0.18155155
000060 11 ad 97 be 01 94 7d 3e e6 88 84 3e 22 07 84 bc
       -0.29624227 0.2476349 0.25885695 -0.016116682
000070 a1 a5 b6 be 5b aa 52 be 8a 0b ea 3d 4b 66 22 3f
       -0.3567324 -0.20572798 0.11427982 0.63437337
000080 79 8e af be 1b db 93 be 55 95 37 3e b3 b5 af be
       -0.34288386 -0.28878102 0.1792806 -0.34318313
000090 f4 0a 79 be f3 7e d3 3e 4e f5 7e be 1e 06 71 be
       -0.24320585 0.41307792 -0.24898264 -0.2353749
0000a0 4f 52 51 3e 87 31 ef bd 7e 1c f5 be 62 61 79 3e
       0.20441554 -0.116793685 -0.478733 0.24353555
0000b0 87 4a 01 bf fa 30 96 3c f6 38 50 be 5d 29 bd be
       -0.50504345 0.0183339 -0.20334229 -0.3694562
0000c0 27 6c 0b be 16 fd 67 be c9 11 d5 3d b0 85 84 be
       -0.13615476 -0.22655138 0.10403783 -0.25883245
0000d0 39 20 53 3e ac f0 db 3e 8a 53 ea 3e b2 f4 a2 3e
       0.2061776 0.42957056 0.4576686 0.31827313
0000e0 e7 e6 0d 3f 90 ac a9 be d9 7b d5 be 02 8d 19 3e
       0.55430454 -0.33139467 -0.4169605 0.14995196
0000f0 9c d8 13 3f bb 16 9b 3e c0 09 58 be a4 73 29 bd
       0.57752395 0.3029078 -0.2109747 -0.04137005

conv2d_3/bias:0 f4 [2]
000000 a5 01 0b 3a 18 16 05 ba
       0.0005302674 -0.00050768396

conv2d_2/kernel:0 f4 [32, 16, 3, 3]
000000 7d 36 87 3d 5c 55 09 3e b4 7e ff bd e3 9f eb 3e
       0.0660219 0.13411468 -0.124753386 0.4602042
000010 8a 76 bb 3e 13 14 4d 3e 8a e2 c7 3e c5 c2 81 3e
       0.36613876 0.20027189 0.39040023 0.2534391
000020 1c 6f b1 3e 32 ab 0c 3e e1 13 cd 3b 6c 93 6a 3e
       0.34655082 0.13737181 0.0062584733 0.229078
000030 5c 26 55 bd 4b 70 48 3d 3a 4e d3 3d 17 5e 41 be
       -0.052038535 0.048935216 0.10317655 -0.18883549
000040 0f 29 b7 bd 73 b8 97 bd 5d a8 db be 7f 19 0a be
       -0.08943378 -0.07408228 -0.42901888 -0.13486288
000050 ad 8f 12 bf a0 7c ab be a5 f7 bb bd 2b 57 56 bd
       -0.5725048 -0.3349352 -0.09178094 -0.052329224
000060 95 57 6c be c7 14 88 bd 0b 5b 2b 3d 5d 1f 5f 3d
       -0.23080285 -0.06644588 0.041834872 0.05447327
000070 5d bb 8f 3a f6 bd 9e 3d 64 f5 f9 bd c0 6f 12 be
       0.0010965873 0.07751076 -0.12205008 -0.14300442
000080 37 67 5b bd d3 ba 0a 3d 5d d7 6d bc 55 e8 90 bd
       -0.05356523 0.033869576 -0.014516679 -0.07075564
000090 1c 0a da 3c 30 30 86 3d 66 ce 2e be 39 10 62 3e
       0.026616149 0.0655216 -0.17070922 0.22076501
0000a0 4f 8c 20 3e e2 97 70 3e df 57 86 3e 04 f8 5d 3d
       0.15678523 0.23495439 0.26238915 0.054191604
0000b0 8e a9 b0 3d 53 69 da 3d 8a e0 4d be 34 08 0c 3e
       0.0862609 0.1066462 -0.20105186 0.13675004
0000c0 72 47 3b 3e ac dd 05 bd 28 30 1d be 4f 31 b5 3d
       0.18288973 -0.032682106 -0.15350401 0.088472955
0000d0 37 84 93 3d 23 c3 1d be 36 3f 8c 3d 6d 6d 00 3e
       0.07202952 -0.1540647 0.06847994 0.12541743
0000e0 85 3f 78 3d 2c 5f 36 3e 23 28 2a be 84 3d 7b bd
       0.060607452 0.17809743 -0.16616873 -0.061337963
0000f0 62 9a 7f 3e d3 d6 11 be de 45 1b 3d 9c bc cd 3e
       0.24961236 -0.14242105 0.037908427 0.4018296
000100 3d df 26 3e 54 02 18 3e 94 be c5 bc 4e eb c0 3d
       0.16296096 0.14844638 -0.024138726 0.09419881
000110 03 9e 8f 3d e5 31 7b bd 91 53 2f bd 45 06 4c bd
       0.0701256 -0.06132688 -0.042804305 -0.049810667
000120 a3 90 86 3d 93 f7 2a 3c 70 59 d3 3d 47 2a 05 be
       0.06570556 0.010435003 0.10319793 -0.13004409
000130 ce 10 13 be f6 75 f5 bd 95 0c fb bd ce ea 13 3e
       -0.14361879 -0.1198539 -0.12258259 0.1444504
000140 ae ef 6f be a2 67 c8 bd c2 92 9c bd 54 f7 82 3c
       -0.23431274 -0.097853914 -0.07645179 0.015987076
000150 08 24 73 bd 2f ad bd bd f4 93 91 3d f7 28 8e bd
       -0.059360534 -0.09261548 0.07108298 -0.06941407
000160 b2 63 5a 3d cc 83 8b 3d bb 73 77 3c 31 e0 55 be
       0.053317733 0.06812248 0.015103276 -0.20886303
000170 53 71 ec bd 43 3f c7 3d ae 59 7f 3d 18 6e c0 bd
       -0.115450524 0.09728863 0.062341385 -0.09395999
000180 72 1d f3 bc c8 e9 1a 3c 68 57 33 3e 0c f4 21 3c
       -0.029677127 0.009455152 0.17513812 0.009884845
000190 f6 ec dd bd 94 19 91 3c 5c 7c 19 be b7 f2 4a bd
       -0.10836212 0.017712392 -0.14988846 -0.049547877
0001a0 1d ec 77 bd 28 c3 c5 3d ec 7a 93 3d 90 cb a0 3d
       -0.06052791 0.09656364 0.0720118 0.078513265
0001b0 eb da 1a 3e 96 da 6a bd 54 78 16 bc cd 0d 3d 3d
       0.15122573 -0.057337366 -0.009183962 0.04615574
0001c0 26 79 35 be 89 20 02 be 18 ed 66 bc 30 ce 50 be
       -0.17721996 -0.12707724 -0.0140946135 -0.20391154
0001d0 dc 11 c4 3d 83 8b e3 3d 1d 5a e4 3c 21 c4 cf 3d
       0.09573719 0.11110594 0.027875 0.101448305
0001e0 64 d2 1e 3e 20 38 15 3e 98 d7 1d 3e c9 61 9d 3d
       0.15509945 0.14572191 0.15414274 0.07684667
0001f0 99 cd 6e 3d 7d ce 00 3e 55 3b e1 3c 65 50 16 bc
       0.058301542 0.12578769 0.027494112 -0.009174441
000200 44 0f e1 3c a5 c0 82 3d 7d 57 7b 3d 3f b3 18 3d
       0.0274731 0.063844 0.061362732 0.037280317
000210 c9 b0 83 3e a5 02 13 3e 46 0b b8 3d 7c 12 54 3e
       0.25720814 0.14356478 0.08986525 0.20710176
000220 71 c1 56 3e da 34 8d 3e 2d c8 ae bd 2e 7a 25 be
       0.2097223 0.27579385 -0.08534274 -0.16159889
000230 12 7f 96 bc 75 12 e0 bd b3 61 93 bd 85 53 7c be
       -0.018371139 -0.109410204 -0.07196369 -0.24641235
000240 7a d8 26 bc e6 ac ef bc 58 74 ac 3c 3b 33 81 bc
       -0.010183448 -0.02925725 0.02105157 -0.015771499
000250 bc 57 84 bc 36 b0 03 bd 55 94 97 bd f2 5e b2 bd
       -0.016155116 -0.03215047 -0.07401339 -0.08709516
000260 b8 eb 0c be 9b d8 5c 3d 95 4c 5c bd 18 8a 09 3d
       -0.13761795 0.05391751 -0.05378397 0.033578962
000270 6e 81 85 3d 0e ca ef bc b0 ea b9 3d c5 37 6b be
       0.065188274 -0.029271152 0.09077966 -0.22970493
000280 65 c2 22 be aa 95 6f be dd f9 06 be 06 8e df 3d
       -0.15894468 -0.23396936 -0.13181253 0.10915761
000290 51 7f eb 3d 1b d6 62 bd 49 71 43 bc fa 81 8e 3d
       0.11498893 -0.055379968 -0.011928865 0.06958385
0002a0 6a 96 3f 3d cf 71 8d 3d 5a 0f 4c 3d 21 1b 55 3d
       0.046774305 0.06906473 0.049819328 0.052027825
0002b0 cf 22 55 3c c2 31 40 bd 75 47 34 bd ee c2 e1 bc
       0.013008787 -0.046922453 -0.04401346 -0.02755877
0002c0 88 a9 b7 bd 73 33 15 be 55 11 ed bd f7 54 2a bf
       -0.089678824 -0.14570408 -0.115755714 -0.66535896
0002d0 c0 ec 87 bd de 3e 9c 3b 6c ba 0e 3d 72 a1 df bc
       -0.06636953 0.0047682365 0.034845755 -0.027298663
0002e0 a4 cf 2f be a4 cf 8a bb e5 5e 66 3d da a7 08 3e
       -0.17169052 -0.0042361785 0.056242842 0.1334528
0002f0 d3 60 f5 bd 8b ee 89 3d d9 12 5a 3d 06 4f 8f 3d
       -0.119813584 0.067349516 0.05324063 0.069974944
000300 cb df db 3d 9f db 53 bd fd 7a 7c be 14 e8 b1 bd
       0.107360445 -0.05172312 -0.24656291 -0.086868435
000310 2e 9d 12 3e e8 9e e4 bb 29 52 58 3d 6d 01 de 3d
       0.14317772 -0.006976951 0.05281273 0.10840116
000320 57 bd e5 bd 63 fe 1f 3e b7 1b bb 3d 96 8f 17 be
       -0.11217754 0.15624385 0.091361456 -0.14800867
000330 7e 7b 85 3e 1d 28 62 3d ef e6 3c be 87 5a cf bd
       0.2607078 0.055214036 -0.18447469 -0.101246886
000340 e0 fd 96 bd 3b f2 21 3c a9 45 bf bc 17 8a 88 3d
       -0.073726416 0.009884412 -0.023348646 0.066669635
000350 05 d1 0d be f6 76 4c bb 3e ba 29 3d 1d 94 88 3e
       -0.13849266 -0.0031198836 0.04143738 0.266755
000360 4d 86 43 3e e7 7a 09 3e 7e 4b 76 3e 3c 80 ab be
       0.190942 0.1342579 0.24052235 -0.33496273
000370 1b c6 5e be bb 01 be be 93 2c 92 3e 40 8f 2f 3e
       -0.21755259 -0.37110695 0.28549632 0.1714449
000380 22 95 7b 3e ed 9f 8e be f7 13 eb bd be 43 e9 bc
       0.24568608 -0.2785639 -0.11478417 -0.028474685
000390 9d 84 53 be 56 fa 40 be 8a a4 cc bd c6 c7 e0 bd
       -0.20656057 -0.18845496 -0.09992321 -0.10975604
0003a0 4c e6 2a be 4d cc 92 bc ee 7a ac 3c 59 d5 f4 bd
       -0.16689414 -0.017919684 0.021054711 -0.11954755
0003b0 e7 e2 06 3b 67 ba 63 bd c9 ca 09 be 38 23 90 3c
       0.0020582022 -0.05559769 -0.13456263 0.017594919
0003c0 85 6f 61 3d 96 d8 a0 3d 57 95 06 bc 42 9a 29 be
       0.055037994 0.078538105 -0.008214316 -0.16562751
0003d0 0a eb 05 be ff 59 a7 bc 9a 78 21 bd 16 60 5c 3c
       -0.13077942 -0.020428656 -0.039421655 0.013450643
0003e0 8b 27 8a 3d 51 3e 4e bd de 86 fc bd b6 4a c8 bd
       0.067458235 -0.0503524 -0.123304114 -0.09779875
0003f0 55 c6 a5 3d e8 f5 9c 3d dd fb b5 bd 46 99 2d 3c
       0.080944695 0.076640904 -0.0888593 0.010595625

conv2d_2/bias:0 f4 [32]
000000 1c ca b7 bd 0b a2 dd 3f c6 a9 a5 3f 4f 7b e3 bf
       -0.08974096 1.7315077 1.2942436 -1.7772006
000010 ec 0e cb 3e ff c3 08 3f 02 33 ac 3f b2 99 45 3f
       0.39659822 0.53424066 1.3453066 0.77187645
000020 78 a9 49 3f a6 f2 9f 3e db 2d c2 be 7e 03 97 be
       0.78774214 0.31239814 -0.3792561 -0.29494852
000030 7c 83 ee 3f 19 9d 50 3f 89 00 c0 3f 46 fb c1 bf
       1.8633876 0.8148971 1.5000163 -1.5154808
000040 4a 30 37 bf d8 e1 f7 be 6b 28 1d bf cb 27 bc 3f
       -0.7155806 -0.48414493 -0.613898 1.4699644
000050 58 9a af 3f 81 8e 4c 3f 6c 5e 6b 3f 78 4b 62 3f
       1.3718977 0.79904944 0.9194095 0.88396406
000060 21 ea 59 3f d5 09 7f 3f 3e 2c a3 be ca 29 5d be
       0.8512288 0.9962438 -0.31869692 -0.21597973
000070 5d 9c 69 3f d7 e1 18 3f ca 5b 45 3f 2e 3e c5 3e
       0.91254216 0.59719604 0.77093184 0.38524002

conv2d_1/kernel:0 f4 [16, 10, 3, 3]
000000 3a 98 ee bd 72 62 c4 be 45 1f 14 bf 84 44 a3 3e
       -0.11650129 -0.38356358 -0.57860214 0.3188821
000010 7b 9d eb 3c 98 e4 00 bf ce c5 ae be e2 3e 95 be
       0.028761616 -0.50348806 -0.34135288 -0.29149538
000020 ce 00 56 3f 68 a4 bf bc e4 cb 96 3e 80 12 76 3e
       0.8359498 -0.023393825 0.2945243 0.24030495
000030 e8 09 1e 3d 3d a3 0c 3e d3 6e dc be 99 1b 96 be
       0.038583666 0.13734145 -0.43053302 -0.2931793
000040 49 62 1d be 35 42 dc 3c 6b fc bb bd 7e 30 81 3e
       -0.15369524 0.026887039 -0.09179004 0.2523231
000050 3a e6 d2 3e 5f a2 11 3e e7 54 20 bd db c6 b6 be
       0.41191274 0.14222096 -0.03914347 -0.3569859
000060 72 29 98 bb 2a ee a1 3e 4c f4 ed be 34 56 ad 3e
       -0.0046436125 0.31627017 -0.46475446 0.3385483
000070 22 3e e2 bd 2a 7d 62 3e 21 a1 21 bf 92 c8 8f 3d
       -0.11047007 0.22118059 -0.6313649 0.070206776
000080 8e 7c 1b bf cf 93 10 3f fd 72 9a be 50 b1 01 3f
       -0.6073693 0.5647554 -0.30165854 0.5066118
000090 b1 4b f6 3e 1d 93 34 3e e3 ec 63 3d d2 8c 4f bc
       0.48104623 0.17634244 0.055645835 -0.0126678515
0000a0 bd dd 4b be c4 56 f6 bd 23 05 14 3d 85 7b ce be
       -0.19908805 -0.12028268 0.03613771 -0.40328613
0000b0 ce 39 ce be 1d 38 80 be d5 08 45 3e 94 26 07 bd
       -0.40278476 -0.2504281 0.1924165 -0.032995775
0000c0 be 50 33 3e 88 ad de 3e de 65 85 bb 88 62 a5 3d
       0.1751127 0.4349177 -0.0040709814 0.08075434
0000d0 a2 3e 0d bd 7f f0 f6 bd 1e 19 bc 3b 50 8e bb be
       -0.03448356 -0.1205759 0.005740299 -0.36632013
0000e0 9c 1c 83 3e df db 61 3e 81 84 42 3f 66 1a 97 be
       0.25607765 0.2205653 0.75983435 -0.29512328
0000f0 ac e0 44 3d 12 d8 86 be 44 3e e5 bf 52 27 95 3c
       0.048065826 -0.26336724 -1.7909627 0.018207226
000100 fd a7 96 3d d1 dd d1 3d 9f 2d 21 be 97 b5 61 be
       0.0735626 0.10247386 -0.1574006 -0.22041927
000110 27 3c 71 be a3 65 72 3d fe e6 02 3f 48 f4 88 3e
       -0.23558103 0.05917896 0.51133716 0.26748872
000120 10 c3 0d bd a5 68 ac 3e 66 2b a1 3e f7 ee 38 3e
       -0.034609854 0.33673587 0.31478423 0.18059908
000130 93 da 64 3d 43 3e 8c 3e 8d be 1f be 76 8a 03 bf
       0.05587251 0.27391252 -0.15600033 -0.5138315
000140 c8 a3 ab bf 82 d9 f5 39 e8 63 6a 3e ea a0 7d 3e
       -1.3409357 0.00046892097 0.22889674 0.24768415
000150 21 6d 91 3d 4c 90 c6 3d e5 fd 8a be c7 cc 78 be
       0.07100893 0.09695491 -0.2714683 -0.24296866
000160 07 06 c3 3d 4a 1f 44 bd 7b 80 79 be 5a 3f 3e bd
       0.09522634 -0.047881402 -0.24365418 -0.046447136
000170 5a ac 0f 3c 09 4d bd 3e 9e 7d 85 3e bb b2 d8 3a
       0.008769119 0.36972836 0.260724 0.0016532758
000180 cd 07 1a 3e a4 a5 8e 3e d9 af 91 3e 0a c2 27 bf
       0.15042038 0.2786075 0.28454474 -0.65530455
000190 53 ea 22 3c 2b 41 fb bd 94 f6 ac be 39 8e 3a be
       0.009943563 -0.12268289 -0.33781874 -0.18218316
0001a0 bb 77 99 be 90 52 81 bf ec ea 0a 3e 50 93 4d 3e
       -0.2997416 -1.0103321 0.13566178 0.20075727
0001b0 6e b9 18 bf c6 30 47 3f 84 59 f0 bb 60 3c cb be
       -0.59657943 0.778088 -0.00733489 -0.396945
0001c0 cf a0 d3 3e 50 f3 03 3e 0e 82 24 bf 83 3a 1e 3f
       0.41333625 0.12885785 -0.6426095 0.6180803
0001d0 7e 7c f7 3d e3 55 c5 be a4 2f 78 be 13 ce 8f bd
       0.12084292 -0.3854209 -0.24236923 -0.070217274
0001e0 79 f5 33 be 64 75 60 be 77 da fd bd e7 26 5d 3e
       -0.17574109 -0.21919781 -0.123951845 0.21596871
0001f0 f0 c9 c3 3d 05 ed 1f 3e d1 5c 8a 3d a5 42 ce bd
       0.09560001 0.1561776 0.067559846 -0.10071305
000200 e2 de ea bd 7b 51 d1 3c b3 0e 06 bf 51 f9 c7 be
       -0.11468293 0.025551548 -0.5236618 -0.390574
000210 a1 3c 09 3e 36 61 3d be 01 1e 1f be c5 32 df 3e
       0.13402034 -0.18494114 -0.1553879 0.43593422
000220 71 b1 c4 3e b4 65 d1 3d 9c 4b ae 3c 81 eb 86 3d
       0.38416627 0.102244765 0.021276288 0.065878876
000230 f9 f2 bf 3d 0d b8 a7 3d ea 26 03 be ea cb 19 be
       0.09372515 0.08189402 -0.12807813 -0.15019193
000240 6a fe f8 3c fe 52 fb 3d 2c 90 2d 3e 0a 2f 49 3d
       0.030394752 0.12271689 0.16949528 0.049117126
000250 b9 08 ed bd f6 df 84 3d 8a 6c 28 bf f8 bf ab be
       -0.11573929 0.0648803 -0.6579062 -0.33544898
000260 1e 36 86 bd 48 a0 0c 3e 2c e1 6f 3d 34 60 89 bc
       -0.06553291 0.13733017 0.05856435 -0.016769506
000270 f1 73 1d be aa 73 31 be 24 d3 27 bd 10 49 9e 3e
       -0.1537626 -0.17329279 -0.040972844 0.30915117
000280 45 a7 dd 3d f4 ed 83 bd 3c 5a b9 bd 59 7f cd bd
       0.1082292 -0.0644187 -0.09050414 -0.10034055
000290 4a 68 18 bd aa b9 06 3f 9d 20 9a 3e 27 7e 88 3d
       -0.037208833 0.5262705 0.30103007 0.06664687
0002a0 43 d5 1a be 92 cb 03 be 49 98 5f bc ce ab 85 bf
       -0.15120415 -0.12870625 -0.013647147 -1.0443056
0002b0 a6 d1 ca 3e 96 ef 68 3e d8 3f b8 be 2d 1a 1f be
       0.39613074 0.22747645 -0.3598621 -0.15537329
0002c0 86 a0 5f 3d 9c 3a 5c bf 18 5c 75 bd ca 71 ec 3d
       0.054596446 -0.8602693 -0.05990228 0.11545141
0002d0 2a 91 d1 bd 5c 03 40 b9 49 f2 34 bc 37 55 a3 be
       -0.10232766 -0.00018311798 -0.011044093 -0.3190095
0002e0 8c 43 e7 bd f0 13 c2 3c 81 93 9a 3e a4 06 22 3e
       -0.112921804 0.023691148 0.30190662 0.15822846
0002f0 1d 57 5e 3c f3 3f ba bc 94 b0 e1 bc c5 97 90 3e
       0.013570574 -0.022735571 -0.02755002 0.2824079
000300 d2 31 93 3d 53 a3 9b bd 89 f2 54 3e 7a 51 94 bf
       0.07187237 -0.07599511 0.20795645 -1.1587365
000310 85 6d 98 be 2e 57 33 be ed 4e 25 3f 28 f1 e9 bd
       -0.29771057 -0.17513725 0.64573556 -0.1142295
000320 6f 28 1b 3f 7e bf 87 3e ee 68 cb be ad 9e f3 bb
       0.6060857 0.26513284 -0.39728492 -0.007434687
000330 74 b3 f0 be 37 78 c7 be 61 51 79 3d 01 a9 2a 3e
       -0.47011912 -0.38958904 0.060868625 0.16666032
000340 aa 17 1a 3c 6e 13 36 3e d8 a9 87 3d 2f 89 55 bd
       0.009405056 0.1778085 0.06624192 -0.05213278
000350 68 7f 67 3d dd fa 8a 3d 9d 2d e9 bd 2a 9c e1 bd
       0.05651799 0.067861296 -0.11385653 -0.11016114
000360 aa b3 cc bd 2a cf 09 3e bb 8b 72 3e 98 cb ac 3d
       -0.09995206 0.13457933 0.23686115 0.0843727
000370 b7 83 ac 3d 76 64 5a 3e fa ec b9 be b9 87 4f 3d
       0.0842356 0.21327385 -0.3631361 0.050666545
000380 c0 b6 27 3e 36 af 1f be fe 6f c6 bc e4 c2 e0 3d
       0.16378307 -0.15594181 -0.024223324 0.109746724
000390 67 77 21 3e 36 02 a7 bb 12 5f 13 3d f7 1f dc be
       0.15768205 -0.005096699 0.035979338 -0.42993137
0003a0 da 1d f8 3c 59 ff ee bb 63 4f 33 be e0 4b 53 bc
       0.030287672 -0.0072936234 -0.17510752 -0.012896508
0003b0 3e a3 f0 bd 55 fe 83 3b 23 49 65 be 2c ef 55 bd
       -0.11749886 0.0040281215 -0.2239118 -0.052230045
0003c0 52 99 8a be 41 64 a3 bd 06 46 da bb 75 1f 1e be
       -0.270701 -0.07978106 -0.0066611795 -0.15441687
0003d0 d7 34 a3 bd 2d 82 1b bd 94 15 8a be d4 bb e8 bc
       -0.07969063 -0.037965942 -0.26969588 -0.028409876
0003e0 ec e6 2c be 4d 49 58 bf 0d 51 24 3c db 0a 18 be
       -0.16884965 -0.8448685 0.01002909 -0.14847891
0003f0 c9 eb 28 3d f4 53 f2 3c 94 cd da 3c 3a 83 55 bc
       0.041240487 0.029581048 0.026709355 -0.013031775

conv2d_1/bias:0 f4 [16]
000000 f3 a0 82 3f 92 34 1f 40 98 34 17 40 58 9a d7 3e
       1.0205368 2.4875836 2.362585 0.42109942
000010 80 ab 82 3f 2c 42 c4 3f 2b 49 1a 40 b4 91 19 40
       1.0208588 1.5332694 2.4107158 2.399518
000020 4c fa 3c 3f 3f 8d 42 3e 73 37 a3 3e c1 c5 b8 3e
       0.7381942 0.18999194 0.31878242 0.36088374
000030 72 d3 da 3f 63 3c f6 bd 90 76 19 3f 26 ea 2d 40
       1.7095778 -0.120232366 0.59946537 2.7174163

conv2d/kernel:0 f4 [10, 3, 3, 3]
000000 a0 36 a7 bd 8e 6f 76 bc 95 20 ff 3d 8e fe 55 3f
       -0.08164716 -0.015041245 0.124573864 0.83591545
000010 65 b2 73 3e af 56 d2 be 33 8d 9f 3f 9d 31 ac bf
       0.23798521 -0.4108176 1.2464966 -1.3452641
000020 7b ad 14 bf c5 59 88 be 42 55 98 3e 2a f7 d2 3d
       -0.5807721 -0.2663099 0.29752547 0.10301049
000030 db 26 5a 3f 4a ef a3 3e 52 0b aa be e0 76 04 3f
       0.8521554 0.320185 -0.33211762 0.5174389
000040 67 9a 8b bf 32 1f fe be c7 2c 0c be 78 1a d0 3d
       -1.0906495 -0.49633175 -0.13688956 0.101612985
000050 3d a4 37 be ca 71 86 3c 49 2e df 3e 0e cd d3 bd
       -0.17933746 0.01641168 0.4359 -0.103418455
000060 75 f3 09 3d 5d 92 5d be 0e 8d 74 3d 1e ce f9 3e
       0.033679444 -0.21637864 0.059704833 0.48790067
000070 e3 77 a6 3e ef fe 48 3f 16 f7 5f bf d7 3a 4a bf
       0.3251334 0.78514 -0.874864 -0.7899603
000080 0a ed 8a 3e 32 c0 19 c0 34 72 39 bf c7 4d 82 3e
       0.2713397 -2.4023557 -0.72439885 0.25449964
000090 0b 38 fd be 03 72 06 be c1 09 80 be 51 c5 8a 3e
       -0.4945682 -0.1312943 -0.25007442 0.27103665
0000a0 a4 ed a1 be ca 62 3c be d3 8a 91 3f 96 01 06 3f
       -0.31626618 -0.1839706 1.1370491 0.5234617
0000b0 46 ff 30 3f da 71 97 be 9d eb 6b 3e 79 f8 19 bf
       0.69139516 -0.2957905 0.23039098 -0.60144764
0000c0 d7 0f 98 3f 24 ed d9 3e 8b 7d 6c be 66 2b a1 3f
       1.1879834 0.42563736 -0.23094766 1.2591369
0000d0 b8 99 2c 3f 55 e3 76 bf 93 46 34 bf 17 b7 60 bd
       0.67422056 -0.9644063 -0.7042019 -0.054862108
0000e0 d8 a3 08 bf ad fe 39 3e 59 ef 2a 3e d6 32 cc bd
       -0.53375006 0.18163557 0.16692866 -0.09970634
0000f0 85 21 b9 be 4d f9 4f 3e bc 68 73 be 5b e6 24 3f
       -0.36158386 0.20309944 -0.23770422 0.64413995
000100 7d 25 06 3f f9 3b 10 3f a5 81 89 3e 63 e7 f4 3d
       0.5240095 0.5634151 0.26856723 0.11958196
000110 ab 7d c2 3d d2 f6 a9 3e 07 2b b8 3e 70 1b a1 3e
       0.094966255 0.3319612 0.35970327 0.31466246
000120 54 68 c9 3e e3 8a e4 bd f5 d8 35 3f 27 97 6a be
       0.3933741 -0.11159303 0.71034175 -0.22909223
000130 63 7d db be 27 24 09 be 43 4b a1 3e 2d bb 9f be
       -0.428691 -0.13392697 0.31502733 -0.3119749
000140 22 5c e4 3d 60 b1 02 c0 08 09 ad bf 53 5d 8b 3e
       0.111503854 -2.042076 -1.3518381 0.27219638
000150 44 e2 07 bf e7 b3 78 3f b4 5c 95 3f 11 14 25 3e
       -0.5307963 0.9714951 1.1668916 0.16120936
000160 97 c5 28 3f d0 df cc 3e b1 e6 7d bd 09 94 b1 be
       0.659265 0.40014505 -0.061987583 -0.34683254
000170 f0 f0 02 bf 36 22 01 be 69 bb 59 3c b9 c4 19 3e
       -0.5114889 -0.12610707 0.013289311 0.1501645
000180 ad c2 15 3f bb ac 11 3f 29 b3 72 be 96 95 3e 3e
       0.58500177 0.5690419 -0.23701157 0.1861175
000190 11 88 b7 be 08 55 cb bd c9 53 d5 be 1e e5 9d be
       -0.35845998 -0.09928328 -0.41665486 -0.30838865
0001a0 9c 36 4c 3e 9f 05 72 be aa 66 a6 3e 23 a5 5a 3f
       0.19942707 -0.23634957 0.325002 0.8540823
0001b0 83 d7 b8 bf bf d9 63 bf 16 d5 54 3e 12 69 47 40
       -1.4440769 -0.8900413 0.20784411 3.115788
0001c0 89 38 58 3f 3e 5e 83 3e 42 2c a4 bf c0 8e 47 bf
       0.84461266 0.2565784 -1.2826006 -0.77952194
0001d0 a6 ec 45 bd f7 40 90 bf d1 8b 49 bd 2b 5e 9b 3d
       -0.04832139 -1.1269826 -0.049205605 0.075863205
0001e0 da a1 15 40 41 d5 ac 3e 8f f9 5c 3d f4 97 91 bf
       2.3380036 0.3375645 0.053948935 -1.1374497
0001f0 12 02 f0 be 11 04 aa bc 85 7c 17 bf dd c9 df 3e
       -0.4687658 -0.020753892 -0.59174377 0.43708697
000200 ee 29 c6 bd 10 6c 74 3f 49 cf 18 bf 69 59 3c be
       -0.09675966 0.9547739 -0.5969129 -0.18393482
000210 ed 92 0e bf 30 35 c7 3e aa bf 5c 3e ee 97 9e be
       -0.5569294 0.38907766 0.21557489 -0.30975288
000220 f3 c1 9f bf 20 8d 2f bf 42 e9 8d 3f 69 9e 09 3f
       -1.2481064 -0.68574715 1.108681 0.5375734
000230 60 10 cd be 6c ce 62 3e f6 91 36 3f ee 7d f4 3e
       -0.40051556 0.22149056 0.7131647 0.47752327
000240 f5 59 bc be f7 fc 89 bf fc 5b 25 bf 60 e3 15 3f
       -0.36787382 -1.0780324 -0.6459348 0.5855007
000250 0c 4d 8e 3e b7 f7 38 bf 5f ba 06 3e 1f bd 29 3f
       0.27793157 -0.7225298 0.13157032 0.663042
000260 b4 79 ae 3e 95 74 4b be b5 1f 11 bf 31 76 a2 3e
       0.34077227 -0.19868691 -0.56689006 0.31730798
000270 e8 60 5f 3e 9d 88 70 3d 05 34 d0 be 6d c6 d6 3e
       0.2181431 0.058724035 -0.40664688 0.41948262
000280 ef 3a 95 3e ad 62 76 3e b7 79 0a bf 61 20 fc 3d
       0.29146525 0.2406108 -0.5409197 0.12310863
000290 7c 4c 4c 3f 28 fd 2f bf ba cb c4 3e 7c 54 e1 3f
       0.79804206 -0.6874566 0.3843668 1.7603908
0002a0 d7 a4 e0 bf 47 a3 5f bf 10 2a 96 3f 02 27 5c 3e
       -1.7550305 -0.87358516 1.1731586 0.21499255
0002b0 3d 78 e7 3e ef 62 6d bf bd b6 f8 bd 9e 0e bf 3e
       0.45208922 -0.92729086 -0.121442296 0.3731584
0002c0 86 cf e0 be 54 3f 6f 3d f4 5d 72 3e cf 99 51 be
       -0.43908328 0.058410004 0.23668653 -0.2046883
0002d0 41 53 93 be 18 6a 93 bb a3 14 d8 3e 7d 85 9b be
       -0.28774455 -0.0044987313 0.42203245 -0.3037528
0002e0 23 df 14 3e 42 e4 f3 3e 37 6b a2 bd b2 fd 5f be
       0.14538245 0.47635084 -0.07930606 -0.21874121
0002f0 9c 94 5a be ab 4a 89 3f 86 e6 71 3f f6 94 57 3f
       -0.21345752 1.0725912 0.94492376 0.8421167
000300 e8 60 20 3f d4 94 82 3f 7c 21 15 3f cf 65 e1 bf
       0.6264787 1.0201669 0.5825422 -1.7609195
000310 fc 97 cf bf d1 de d7 bf 9e 0b 67 be 90 6d d2 bd
       -1.6218257 -1.6864873 -0.22563025 -0.10274804
000320 4c 87 af be 16 61 f9 3e 57 09 15 3f c0 cf 80 3e
       -0.3428291 0.48706883 0.58217376 0.251585
000330 cc 1b 93 be d1 22 b5 be cb 2f a9 3d 80 ac cd 3e
       -0.28732145 -0.35378125 0.08261069 0.4017067
000340 82 ea 93 3e 15 a5 76 3e b6 58 29 be ab c7 a2 3e
       0.28889853 0.24086411 -0.16537747 0.3179296
000350 ed cb 31 3e c9 d6 f0 be 06 bf 2a bf e7 75 98 be
       0.17362948 -0.47038868 -0.6669773 -0.29777452
000360 70 35 75 bf 2a 5b fa 3f 72 62 76 bf aa ee a3 bf
       -0.95784664 1.9559071 -0.96243966 -1.280721
000370 8f 17 14 40 4a 47 83 bf 24 ef 45 bf c7 ce a5 3f
       2.313938 -1.0256131 -0.77318025 1.2953728
000380 74 95 11 bf 25 61 2c be ee 5e 3f 3f 3e e4 06 bf
       -0.5686867 -0.16833933 0.74754226 -0.5269202
000390 9d 0d 62 bf c1 fe ae 3f 38 0b 2b bf bf 81 02 be
       -0.8830202 1.3671495 -0.66813993 -0.12744807
0003a0 a6 05 14 3f 4d 27 b2 be 94 64 b4 be 5d 3a 13 3f
       0.5782112 -0.3479561 -0.35232985 0.5751093
0003b0 93 b8 25 be ee af c4 be ec 56 1d 3f a4 e0 8e be
       -0.1618369 -0.38415474 0.6146076 -0.27905762
0003c0 78 f3 5c be aa dc 8a 3e 39 32 35 bd 0f 99 10 bf
       -0.21577251 0.27121478 -0.04423735 -0.5648355
0003d0 09 88 7a be d4 47 c1 3b ac 8f c5 bf 31 72 15 bf
       -0.24465956 0.005898455 -1.543447 -0.5837737
0003e0 87 c0 7e be 24 24 2d 3f 08 8b 5a 3e 47 9a 9a 3e
       -0.24878131 0.6763327 0.21342099 0.3019583
0003f0 1a 4f 15 40 be 90 6e 3f ef 4d f6 3d 3e 1c 55 3f
       2.332953 0.9318961 0.120265834 0.8324622

conv2d/bias:0 f4 [10]
000000 60 a6 a9 bd b4 76 6b 3f 56 26 98 3f c7 c7 b1 3d
       -0.08283687 0.91978 1.1886699 0.08680683
000010 73 fe 9e bc 0e db 00 bd 80 89 07 3e c9 d3 55 bd
       -0.01940844 -0.031458907 0.13236046 -0.052203927
000020 05 bc fa 3b 54 d5 2a 3f
       0.007651808 0.6673176

p_re_lu_2_initializer_3 f4 [1, 32, 1, 1]
000000 1e 32 58 3d 20 46 51 bd 09 bd bc 3d 92 e7 b6 be
       0.05278217 -0.051092267 0.09215743 -0.3572355
000010 81 10 a9 be 6e d2 08 be 34 37 a6 bb 8b ae 5f 3d
       -0.33020404 -0.13361523 -0.0050724987 0.054609817
000020 5e 8b a6 bc d0 1b c7 bc 3e 79 b4 3d 1e ec 98 be
       -0.020330127 -0.024305254 0.088121876 -0.29867643
000030 85 ed 75 be b4 7a 1e 3e fc 0e 40 3e ae 4c 93 bd
       -0.24016388 0.15476495 0.18755716 -0.0719236
000040 f1 d0 6e be 96 28 78 3e 5d 8c 91 3e 8a a5 ee bc
       -0.23321892 0.24234232 0.284274 -0.02913167
000050 62 46 d3 be da b2 a8 bc c2 67 b5 bd 89 94 4e be
       -0.41264635 -0.020593096 -0.08857681 -0.20173849
000060 04 90 7e 3b c2 15 30 3f 94 d0 a0 3e ef 63 7d 3e
       0.0038843164 0.687832 0.31409132 0.24745153
000070 77 b0 80 3d bd 99 3c be 72 13 07 be 1c e4 65 3e
       0.06283658 -0.18418022 -0.13191012 0.22450298

p_re_lu_1_initializer_6 f4 [1, 16, 1, 1]
000000 8d 38 89 3d 80 9c 51 3e e2 18 81 3e 6c 91 29 3d
       0.06700239 0.20469856 0.25214297 0.04139845
000010 27 2e 47 3e 9d 01 9a 3e fb 95 d9 3e 6a 16 de 3e
       0.194512 0.30079356 0.4249724 0.43376476
000020 b7 9b 33 3e 20 a6 06 bf ee f1 04 3e 7b 77 42 3e
       0.17539869 -0.52597237 0.12982914 0.1899089
000030 bd f9 87 ba 1d bc 21 be 20 08 59 be b0 02 6f bd
       -0.001037411 -0.15794416 -0.21194506 -0.058352172

p_re_lu_initializer_8 f4 [1, 10, 1, 1]
000000 a1 1a 20 bf e1 c2 58 be d8 7e 81 3f 8f da e1 3e
       -0.6254063 -0.2116809 1.0116835 0.4411206
000010 ad 72 84 bf 7d 9d a4 3e 25 85 98 be 4f f7 80 3e
       -1.0347496 0.32151404 -0.2978908 0.2518868
000020 00 fb 61 bf e0 9f a3 bf
       -0.8827362 -1.2783165
