mtcnn_cv2/rnet.onnx (onnx, 403309 bytes, 16 tensors)

dense_2/kernel:0 f4 [128, 4]
00000000: 3fff 08be 207a c3bd 3b43 813e 83de 503e
00000010: 0e09 1dbe c413 62bd 11a0 8fba bd6d d6bc
00000020: 3512 69bb b150 123e 3e23 4b3d 7386 933b
00000030: e3b5 083c a82e b5bd 15ad d53d 16f6 3b3e
00000040: e74d e9ba 0da1 02be 720b c7bc 4607 49be
00000050: 09d8 b73d 50fe 723b fd0e 0f3d 8dfa 683e
00000060: 022d eb3d dbaa a13e a5dd a6bd 5881 653c
00000070: 9d5c 1ebd 848c 0abd 32be 023d 6d89 763d
00000080: 13d8 63bd eb7f 8cbd 0529 df3d 4abc 153c
00000090: c97a d63d e68c c7bd 903f c03d 52b7 04be
000000a0: 1d68 0c3c 5630 013b faca fdbb 095b e8bc
000000b0: 9be5 053a 1c43 413e 9c90 1cbc ae9b f93c
000000c0: 9c19 55bd c192 073d 134e 0bbd 1a93 9e3c
000000d0: dba7 8e3c f801 e63b 59df babd 47d5 0cbe
000000e0: 6567 30be 1e49 88bd 2572 a93c 4776 003d
000000f0: 4fda 05be c6ca 9fbe bc55 91bd e538 6bbe
00000100: f78e 3d3c 67c6 1c3d eef0 22bc d357 89bc
00000110: cfa7 443c 2ad2 833d 77ce 98bc a614 01bb
00000120: f909 7f3c aa34 013e 3c8d 4bbd bfd4 043d
00000130: 4271 663d c4a2 9ebc 0b30 b33d f66a 43bc
00000140: 5590 3fbd 058e c2bc 800c 483e 30e2 123e
00000150: 9191 933b bc82 a23c 3271 d23a 52d9 62bd
00000160: bde5 b43c 7113 553c c191 efbd 6abb 1abe
00000170: ce8a 033e ea3f 1cbe ac55 0f3e 81b2 c03d
00000180: 7afb 363d 2ce3 323d 1226 6cbb 94e9 363d
00000190: 3e32 c73c b11a b23d e4ef 713d 1aed 463b
000001a0: c13f 42bd 4f8b 33be 92da af3d 0584 623c
000001b0: e5a1 b63c f14e a03d c732 21bc ecd1 39bc
000001c0: 811a 3abe 1ce7 7ebc ed5a 8abd 9c51 433e
000001d0: d5a7 453d 2146 083e ca5e 893b 83db 803d
000001e0: cb34 e9bc 498c 953d 8505 a9bd 77cc 443d
000001f0: ff44 63be e8a3 33be d502 d1bb 7ed6 c33d
00000200: df43 bd3c cce8 583b a556 0c3e d597 383d
00000210: 3279 e13d 789f c1bd 850a 183e 08be 25bb
00000220: 85b0 dc3d 0fac 933d 01e8 3ebd 0d27 c4bd
00000230: 858e 3e3b 3dc8 b2bc 761c 843c 7269 a43c
00000240: 14e4 00be a74e bd3d b39f 10bc 8e03 923d
00000250: 57fd 8dbd 6a67 97bd 9c75 e93d d590 6e3d
00000260: 73d7 b2bd 5df5 283c c664 63bd 7f58 133d
00000270: c035 643b e262 d43c 31b9 1d3d d256 013e
00000280: c570 58be 50b3 11be 3de3 90bd e43e 3fbd
00000290: edca 82bd 506d 2ebe d8a3 d73d 0d18 d23d
000002a0: c416 a63b 7ae6 ee3b 299d 48bd 9a40 5bbd
000002b0: 4e43 c5bd c64b 9bbd 058d 07bd 523a 9abb
000002c0: 8635 2f3d c71f c3bd 9b14 db3e 5181 823e
000002d0: 736d d23d ba65 bdbd c7b7 5e3e c38c 82bd
000002e0: 8a47 f9bd c234 a5be c732 873d cb52 96bc
000002f0: bc21 573e b7c0 c43d 0e02 013d fe26 15bc
00000300: f333 bbbd 7471 4dbd 16be fc3d ef61 893e
00000310: dd3d 33ba cb6f 83bd de72 853c b843 9b3b
00000320: 1909 b5bd 3843 433d 3129 35bd 788b bc3d
00000330: 78bf b7be c59f d9bc bfd5 84bd 27b7 7f3e
00000340: dfa5 913c 7e9b bb3d bae4 7fbd 55a6 ad3c
00000350: 13e5 b73d 4b07 33bd 0143 c5bb d2db 3cbd
00000360: 6663 f03c cd9d 023d 3e1e 3a3b f11d 32bc
00000370: 8659 97bd 0365 e0bd 1bc5 2f3d 8c2e 7ebb
00000380: dbe9 2d3d b82f 3cbc 0c03 2ebc b954 0abe
00000390: 0fb7 103e 59c0 2abe a4cd 7b3e 1a04 193d
000003a0: 1fde 69bd f3ac 80bb 030c babd 0320 eebd
000003b0: 35b4 22bc a898 9d3d d4c5 f83a b093 9b3d
000003c0: d8b6 5cbb b1ed 06bd a0b7 f53b dac3 8d3b
000003d0: 6af4 5cbd 8d58 473d 8122 b9ba ec22 1e3e
000003e0: cdcb a93c cbf0 c4b9 9fab 80bc e119 46bd
000003f0: 1b4f cb3c 6484 853c 2470 31bc dfd1 d9bc
-0.13378619 -0.09544778 0.25246605 0.20397381 -0.15335485 -0.05519463 -0.0010957738 -0.026175374
-0.003556383 0.14288594 0.049594156 0.0045021116 0.008344146 -0.088467896 0.104334034 0.18355593
-0.0017799706 -0.12756748 -0.02429745 -0.19631681 0.08976752 0.0037077852 0.034926403 0.22751828
0.11483194 0.31575665 -0.08147744 0.014007889 -0.03866254 -0.033825412 0.031919666 0.060189653
-0.055625986 -0.06860336 0.10896496 0.00913913 0.10472638 -0.09743671 0.093871236 -0.12960556
0.008569744 0.0019712648 -0.007745144 -0.028363721 0.0005107761 0.18873256 -0.009555962 0.030469742
-0.052026376 0.03309894 -0.034010004 0.019357253 0.017414024 0.0070192777 -0.091246314 -0.13753234
-0.17226942 -0.06654571 0.020684311 0.031362798 -0.1307156 -0.3120939 -0.07096431 -0.22970922
0.01156973 0.03827515 -0.009945137 -0.01676551 0.012002899 0.0643657 -0.018653138 -0.0019696145
0.0155663425 0.12617746 -0.04969524 0.032429453 0.056260355 -0.019364722 0.08749398 -0.011927357
-0.046768505 -0.02374936 0.19536018 0.14344096 0.004503437 0.01983773 0.0016055463 -0.055383034
0.022082204 0.0130051235 -0.11697722 -0.15110555 0.12845919 -0.15258756 0.13997525 0.09409047
0.04467342 0.04367368 -0.0036033434 0.04465635 0.02431595 0.08696497 0.05906667 0.0030353726
-0.04742408 -0.17533611 0.08586611 0.013825421 0.022293994 0.07827557 -0.009838766 -0.011341553
-0.18174173 -0.01555803 -0.06755624 0.190741 0.04825576 0.13308002 0.004192208 0.062918685
-0.028467556 0.07302148 -0.08253006 0.048046555 -0.22194289 -0.17542994 -0.0063785114 0.095623955
0.023103653 0.0033097742 0.13704927 0.045066673 0.11009444 -0.094542444 0.14847763 -0.002529027
0.10775856 0.07210552 -0.046607975 -0.09577761 0.0029076647 -0.021823997 0.016126852 0.020069811
-0.12587005 0.09243517 -0.008827138 0.07129584 -0.06933086 -0.073927715 0.11399385 0.05824359
-0.087325 0.010312405 -0.055516027 0.03597307 0.0034822077 0.025926057 0.03850669 0.12630776
-0.21136768 -0.14228559 -0.07074592 -0.046690837 -0.06386361 -0.17033887 0.105292976 0.102584936
0.005068632 0.0072906585 -0.048978005 -0.053528406 -0.09631978 -0.07582812 -0.03309347 -0.0047066594
0.042775653 -0.095275454 0.42789158 0.25489286 0.10274782 -0.092479184 0.21749793 -0.063745044
-0.12171848 -0.32266814 0.06601482 -0.018350026 0.21008962 0.0960707 0.0314961 -0.009103535
-0.09140768 -0.050157025 0.123409435 0.2683253 -0.00068375265 -0.06417807 0.016290125 0.0047382973
-0.08839626 0.047671527 -0.044228736 0.09206289 -0.35888267 -0.026565442 -0.06486081 0.24972211
0.017779289 0.09160517 -0.06247399 0.021197477 0.08979239 -0.043708127 -0.0060199504 -0.046108074
0.029344272 0.03188877 0.0028399373 -0.010871396 -0.07390122 -0.109567665 0.042912584 -0.0038785068
0.04245935 -0.011485986 -0.010620844 -0.13508882 0.14132331 -0.16674937 0.24590164 0.037357427
-0.057096597 -0.003926867 -0.09084322 -0.116271995 -0.00993066 0.076951325 0.0018979856 0.075965285
-0.003367832 -0.032941524 0.0074986964 0.004326326 -0.05394403 0.048668433 -0.0014124663 0.15443009
0.020727063 -0.00037563438 -0.015706835 -0.048364524 0.024817994 0.01629848 -0.010829959 -0.026589332

dense_2/bias:0 f4 [4]
00000000: c274 a43c 7d9c debd 59de 0bbe 791a 62bd
0.020075206 -0.108696915 -0.13659038 -0.055201028

slope f4 [128]
00000000: 74f8 8dbd 6872 0f3c 2322 8d3c e7f4 d2bd
00000010: 8c43 95bd 96e5 4138 29a7 a5bd f4bd 02be
00000020: a02a 0bbd 7521 9cbd 8cc2 fbbe 73aa 24bc
00000030: cfce 89bd 09ba 2abe 0ce7 dbbc 8fca 93bd
00000040: 75a2 e2bd c49b 03bf d93b 8cbc 36ca 5bbd
00000050: 3f68 56bc ef8f 98bd fc9d 04be 3af8 5f3b
00000060: 1e29 3cbc f84c 56bd d902 02be 6f3a 2dbc
00000070: fa39 fcbc 62be 19be 0a8a 99bc 5277 c4bc
00000080: ef14 c8bc 4d4b e7bd 2619 cebd 540a 7abd
00000090: d7af 2fbd 4755 c8bd 44d8 a7be 6190 d4bd
000000a0: 7f3a bf3b 4e5b 9bbd 14af 17bf c587 1ebd
000000b0: 915f 17be f90d 74bd 8f51 12be 8476 11be
000000c0: 297b 8dbd 9448 38be e1fd adbc 5a47 bdbd
000000d0: 71d8 cfbd 7261 dabc 7ad0 edbe 6227 14bd
000000e0: c8af 56bd 6ecd a2bc acee 16be 92db 0dbd
000000f0: 2434 73be 2764 83bd de2a ffbe fd7a afbe
00000100: 02d6 13bd df91 b2bd ec85 5ebe cca7 b0bd
00000110: 8b3a 05be 58ec 33bd 7598 86bd dd3e f0bd
00000120: 9c83 99bd 585e b9bd a54b 52bc 5795 97bc
00000130: 98ae f5bc 7c9c 37be 524a c1bd bcfe a7bd
00000140: d08b f1ba 46c3 81bd 295d e3bd 8938 9ebd
00000150: 1703 c2be bf29 80be 8800 15bd df27 71bd
00000160: 738b eebd b9a6 e1be 7931 bcbe d899 0bbf
00000170: ece5 2dbe 132d 29bc 7bb4 d7bd caef 2bbd
00000180: 637f 8ebd 49f8 2abf 453a 84bd 41ce aabd
00000190: 251b aebd d621 8bbd e795 00be 5082 9ebc
000001a0: e241 99bd d9eb 40bd 04fb 09be ef3b d5bc
000001b0: b3d1 fcbd 36ee 533d d414 16be 7cfd 04bf
000001c0: 3b88 1fbe 034a c6be df2b 11bd 64dd babe
000001d0: 8e29 8fbd 8763 cabe 7c95 65be 9622 083d
000001e0: da0f 60bc a0e3 61bd 76a1 e6bc 2dd4 3bbd
000001f0: 8714 44bd 7533 41be 2e47 bebb 1b7d fdbe
-0.06932154 0.008755304 0.017228192 -0.10300618 -0.07288274 4.6228604e-05 -0.08088524 -0.12767774
-0.033976197 -0.07623569 -0.49171865 -0.010050404 -0.06728899 -0.1667253 -0.02684357 -0.07216369
-0.110661425 -0.51409554 -0.017118381 -0.05365964 -0.013086378 -0.07449328 -0.12950891 0.0034175054
-0.0114844125 -0.052319497 -0.12696399 -0.010573014 -0.030789364 -0.15014032 -0.01874258 -0.023982678
-0.024424044 -0.11293659 -0.100633904 -0.061045006 -0.042892303 -0.0978189 -0.32782185 -0.103791006
0.0058358307 -0.07585774 -0.59251523 -0.0387037 -0.1478255 -0.059583638 -0.14288925 -0.14205366
-0.069082566 -0.17996436 -0.021239223 -0.09242125 -0.10148705 -0.026657794 -0.46448117 -0.03617037
-0.05241373 -0.019873347 -0.14739484 -0.034633227 -0.23750359 -0.06415587 -0.49837393 -0.3427352
-0.036092766 -0.08719229 -0.21730775 -0.08625755 -0.13010614 -0.043926567 -0.065720476 -0.1173074
-0.074958056 -0.09051198 -0.012835418 -0.018503828 -0.02999048 -0.17930788 -0.094380036 -0.082028836
-0.0018428508 -0.063360736 -0.11101753 -0.07725627 -0.37892982 -0.2503185 -0.03637746 -0.058875915
-0.116476916 -0.44072512 -0.36756495 -0.5453162 -0.1698224 -0.010325688 -0.10532471 -0.041976728
-0.06957891 -0.66785103 -0.064564265 -0.08340121 -0.08501271 -0.06793563 -0.12557183 -0.019349247
-0.07483269 -0.04709992 -0.13474661 -0.026029555 -0.123446845 0.051740848 -0.14656383 -0.51949286
-0.15579312 -0.3872834 -0.03544223 -0.36497033 -0.06990348 -0.39529058 -0.22420305 0.03323611
-0.013675654 -0.05514872 -0.028153162 -0.045856643 -0.04787114 -0.18867286 -0.005806825 -0.4950951

dense_1/kernel:0 f4 [128, 2]
00000000: 3c1d 1d3e e120 1ebe ca0d 38bd bc7a 383d
00000010: 4dea 76bc f801 6d3c e71f 18be 22cb 183e
00000020: fb43 8f3c e1bb 98bc 11de 62bc 8983 553c
00000030: 4207 a73d 940e a8bd 062b 563f f72e 56bf
00000040: 4fca b5bc c725 ac3c cbbf f33e 22fe f3be
00000050: 163e 46bf 4a55 463f a06c 8dbc c3c8 833c
00000060: e598 bd3d d265 bfbd 499c a1be 75a8 a13e
00000070: ed4e d03b 2bdd abbb 0b30 473e 60cf 47be
00000080: 6589 763d 4f6e 70bd f416 50bf 7e16 503f
00000090: 29f2 dd3d 6ea9 e0bd 2344 a83d 95b8 a6bd
000000a0: 32a6 9b3d 51b0 99bd e867 b93e f1e6 b8be
000000b0: 1d73 843e dea8 84be 0531 483d d11c 46bd
000000c0: 088d e13e 2a05 e1be 8611 60be 935b 613e
000000d0: 5644 023d 2e4b 06bd d1c8 743c e6f7 6ebc
000000e0: 70af e83b 735f f7bb 9bd8 203f eddf 20bf
000000f0: 8c2b e13d 4213 dfbd c566 723d f5c1 74bd
00000100: fa27 1dbd 2428 193d 08ea 07be 1dab 083e
00000110: 857b f43c 8c04 00bd 8aba 4cbe 6c63 4b3e
00000120: d2bb 99bd 9b5f 9a3d 2ae4 ffbd ee10 003e
00000130: 8793 133f 7c7f 13bf 688a 56be 2c95 563e
00000140: 4abe 4c3d 121a 48bd c2db 96be be02 973e
00000150: a9d7 5bbf c7ec 5b3f aff2 7b3d 8784 7dbd
00000160: afea ff3d 3a18 fdbd 2f4d 65bd c4d3 643d
00000170: 384f e6bd 612e e63d e2ab b03e ef2d b0be
00000180: c3a7 113d 10ab 10bd c98f 9ebe 5c69 9e3e
00000190: ef52 1fbc d36f 1a3c 62be a03d 1598 9fbd
000001a0: 16be 02bd a424 073d 1bd7 05be 9760 063e
000001b0: 349a 40bf e4aa 403f d078 863c c8ab 87bc
000001c0: 1293 3c3e c7bf 3cbe b807 45bd 2259 443d
000001d0: bf17 f13e 5ea8 f0be f99d b8bc df6b b83c
000001e0: 5bb6 f5be 274a f53e b885 1dbe 2cb9 1d3e
000001f0: 85fe 48bf 99d1 483f fb0b 1ebf 80ca 1d3f
00000200: 51da 723d fe49 73bd 6c7f 303b 3fff 6abb
00000210: 061d fc3e 398a fbbe 2e5f 5fbe 11d6 603e
00000220: 1247 ef3c ab30 ecbc 8748 6b3e 2b1b 6cbe
00000230: 6a55 933d 9a19 93bd bbc1 71be 13b1 723e
00000240: 3022 583e 77ff 57be e901 783d f42f 7cbd
00000250: b98b 6cbb 1cd2 003b 4e6a 963d 3d8a 93bd
00000260: 0825 ed3c 5017 e8bc c3bc e23e 037c e2be
00000270: f542 70bd fe5b 6c3d f310 fd3d fd8b fcbd
00000280: 7edc 08bd 01cc 0a3d c8f5 ff3d 46e3 febd
00000290: 5662 8fbd 0f39 8f3d 2a67 063d 156e 05bd
000002a0: 4436 523f 7a34 52bf 6479 113f e978 11bf
000002b0: a611 483d 9f0b 46bd a6f3 7d3d 464d 7ebd
000002c0: 987c 65bd 2b4a 663d 55d3 40bf f4bc 403f
000002d0: 4d14 2e3f c0db 2dbf 1c96 47bf c08a 473f
000002e0: 18b1 9e3d 7b41 9fbd df8c ce3c df05 c8bc
000002f0: dfe9 703e e00a 72be b45d 98bc d3ee 9c3c
00000300: fb98 e3bc 240a ea3c 17b8 623f e09e 62bf
00000310: 92a2 873d ceeb 85bd 5657 683d 5b32 63bd
00000320: 23d7 ea3d 4791 eabd 6b0f 0ebd 0c02 0e3d
00000330: 480d 803e 7734 80be 3931 e93c 384d eabc
00000340: c193 863d 5de2 83bd d86b 2b3d e600 2dbd
00000350: 2439 d6bd ed09 d53d 9a55 483d 58bb 4bbd
00000360: 2e80 94be 1685 943e 67d9 f1ba 99b6 013b
00000370: ae3e 063d 977d 05bd 1dd2 3bbf 02e9 3b3f
00000380: d150 ce3e 29a5 cebe 9f67 2ebf 925a 2e3f
00000390: be53 53bc f97d 503c 7dc2 13bf 6db2 133f
000003a0: 680e 2bbb 8654 713b 94c0 2ebf a4c2 2e3f
000003b0: 6065 f33e 9eed f3be b6e5 65bb c0f9 873b
000003c0: 5064 f03c 4c5e f9bc 7f73 65bb bbbc 723b
000003d0: 86c7 e13d e857 e5bd 2da7 cebc f4b4 d63c
000003e0: 9dba 493d 2059 4fbd 3ce6 c3be 74d8 c33e
000003f0: fbaa b5bd 1741 b43d a1ca 3cbf f1eb 3c3f
0.15343183 -0.1544223 -0.044935025 0.045038924 -0.01507051 0.014465801 -0.1485592 0.14921239
0.01748847 -0.018644275 -0.01384689 0.013031849 0.08155681 -0.082059056 0.836594 -0.8366541
-0.022191195 0.021014107 0.47607264 -0.47654825 -0.77438486 0.7747389 -0.01726371 0.016086942
0.09257678 -0.093455926 -0.3156455 0.31573835 0.006357065 -0.005244871 0.1945192 -0.19512701
0.060189623 -0.05869895 -0.81285024 0.8128432 0.10837204 -0.10969816 0.08216121 -0.08140675
0.076000586 -0.07504333 0.36212087 -0.36113694 0.25869074 -0.25910085 0.048874874 -0.048367325
0.4405291 -0.43949252 -0.21881685 0.22007589 0.03180345 -0.03278654 0.0149404565 -0.014585471
0.007100992 -0.00754922 0.62830514 -0.62841684 0.10994634 -0.10892345 0.05918004 -0.059755284
-0.038368203 0.037391797 -0.1327287 0.13346525 0.029844055 -0.031254336 -0.19993034 0.19862145
-0.07506527 0.075377665 -0.12494691 0.12506458 0.57646984 -0.576164 -0.20951235 0.20955342
0.04998616 -0.048852988 -0.29464537 0.2949428 -0.85875946 0.8590817 0.061510738 -0.061893966
0.12495934 -0.123581365 -0.05598181 0.055866018 -0.112455785 0.11239315 0.34506136 -0.34410045
0.03556038 -0.035319388 -0.30969074 0.30939758 -0.009724363 0.009426075 0.07848813 -0.07792679
-0.03191956 0.032993928 -0.13070337 0.13122784 -0.75235295 0.7526076 0.01641503 -0.016561404
0.18415478 -0.18432532 -0.048103064 0.047936566 0.4708843 -0.47003454 -0.022536265 0.022512374
-0.4799069 0.47908136 -0.15383041 0.15402669 -0.78513366 0.7844482 -0.6173703 0.61637115
0.059290234 -0.059396736 0.0026931418 -0.0035857705 0.49240893 -0.49128893 -0.21813652 0.2195666
0.029208694 -0.0288318 0.22976886 -0.23057239 0.07194026 -0.071826175 -0.23609059 0.23700361
0.21106791 -0.21093546 0.060548697 -0.06156917 -0.0036094023 0.0019656485 0.07344495 -0.07204101
0.028948322 -0.028331429 0.4428464 -0.44235238 -0.058657605 0.057704918 0.123567484 -0.12331388
-0.033413403 0.03388596 0.12498051 -0.12445693 -0.07001178 0.06993305 0.03281323 -0.032575686
0.8211405 -0.8211132 0.5682585 -0.5682512 0.048844956 -0.048350926 0.06199994 -0.062085412
-0.056027025 0.056223076 -0.7532247 0.7528832 0.67999727 -0.67913437 -0.77963424 0.7794609
0.07748622 -0.07776161 0.025213657 -0.024416862 0.23526715 -0.23636961 -0.018599369 0.019156849
-0.027782908 0.028569289 0.8856215 -0.88523674 0.06622805 -0.06539117 0.056723915 -0.055467945
0.11466815 -0.11453491 -0.034682672 0.03466992 0.25010133 -0.25040027 0.028465854 -0.028601274
0.065711506 -0.0643966 0.041850895 -0.042237185 -0.104601175 0.10402284 0.04890976 -0.04973921
-0.29004043 0.29007787 -0.0018451632 0.0019792675 0.03277462 -0.032590475 -0.7336748 0.73402417
0.40296033 -0.40360382 -0.68126863 0.6810695 -0.012898384 0.012725347 -0.5771864 0.5769413
-0.0026101116 0.0036824062 -0.682626 0.6826575 0.4753828 -0.47642225 -0.0035079545 0.0041496456
0.029344708 -0.030440472 -0.0035011468 0.0037038762 0.11024384 -0.111984074 -0.0252262 0.026209332
0.049250234 -0.050622106 -0.38261592 0.38251078 -0.088705026 0.088014774 -0.7374669 0.7379752

dense_1/bias:0 f4 [2]
00000000: d285 c1bd d685 c13d
-0.09449352 0.09449355

dense/kernel:0 f4 [576, 128]
00000000: 7567 883c 6072 c73c 9ca7 a1bb 286d 2b3b
00000010: 6a42 8c3a f4bb 24bc 9f18 23bc f1da 37bd
00000020: 9503 dfbc ecdd 2fbd 7354 9e3d 0b0b 143b
00000030: 9229 923b 4363 923b f112 4c3c c296 b03c
00000040: b26d 4dbb be77 d43d a256 eabb 77ca 41bb
00000050: 2580 173b fc03 f2b9 2bda 86bc 1d34 76bc
00000060: 8a69 48bd 7a97 393c d7a2 2e3c a855 b33b
00000070: bf53 b23b f08f 3cbd 3a95 13bc e34f 8ebb
00000080: fab1 75bb fc24 20bb 1db4 c8bc d41d 77bb
00000090: 0543 0fba 46e8 c03c 5eb2 b43c 920f 33bb
000000a0: 49d4 8c3c 05f7 a43c 1d19 963d 97f0 a13c
000000b0: b179 473b a7c6 a5bc 842d 4a3c 64a9 bbbc
000000c0: 1316 e63b f1a6 173d 9014 033c 4883 f73c
000000d0: 25e4 56bc 7d86 683b 9560 0f3d 0355 bdbb
000000e0: 8eea 70bc 5e70 faba 8b9c 99bc 848f 5d3b
000000f0: 9707 09bc 743e 42bb 5177 acbd bb5e c5bc
00000100: 70c9 9fba 630b 06bc ccbc 8abb fa97 4dbc
00000110: 3b18 8a3c 95af a3bc ed3b 003b a72a 5b3c
00000120: 459e e9bb 6558 d4bb 1aca 613b d84b 47bc
00000130: 448e e8bb dd37 08bd 69fb 37bc 4be2 0f3b
00000140: 9d67 c63c dc51 d13b 30ac 033c 93af 393b
00000150: 5841 843a 42ac 2abd db89 2f3a 69c8 8d3b
00000160: 8a75 8c3c cbda c53d e371 273c 9b29 f13c
00000170: b0e1 45bc c8ff d43c c179 b3bc 743a 86bc
00000180: 2225 24bd 19ea aa3c 9d7e 96bc 5262 893c
00000190: 5efd 36bc 92c2 d3bc b905 903c f69f 3cbb
000001a0: 9fc3 4cbc 6bd5 063c d15a 11bd fea5 b03b
000001b0: afa1 893c b181 fe3b bd0d a13c 2d49 9bbd
000001c0: 0d21 0c3c b1f0 083c 65be 2839 051e 83bd
000001d0: 3b9f cbbb 5aff 493c 7d93 9fbc e69e 2f3c
000001e0: 3d32 133b bcb9 e7bc 553d 32bc 9365 af3c
000001f0: 9f35 c13b 61dc e4bc b9f4 fd3b 9e0b 693d
00000200: 3d7d 813c 6473 adb9 5e28 66ba 36b3 993c
00000210: ee7b 94bb abd0 273b 7de5 2fba 8efd 90bb
00000220: 1b15 d9bc 3883 aabc 0791 173c 97f4 e53b
00000230: ed3c 523a 16b0 8b3c 6898 abba 2863 e13c
00000240: c7fc 5fbc e7d3 4fbd c791 1ebc 4458 bbba
00000250: 50d3 b43b 7d3b 59bc f06a fbbb cf87 03bc
00000260: 9899 a03b 5ff9 f63c 4ba8 b53b 891f 7fbb
00000270: aab4 523c 3457 21bb 2eec 9e3b 5231 c63b
00000280: 51cc 843b a395 953b de4d babb b917 cfbb
00000290: 4683 b6ba c0a4 02bc b0bc 20bc c82a d6bc
000002a0: 6de7 983b 6ab2 c8bb ac09 bbbc fe8f e93c
000002b0: cb6d 7a3b 3e92 603c 6d31 e33b baae 303c
000002c0: be00 b7ba adc1 2b3b e99d 1cbc 1ff3 86bc
000002d0: fa98 0fbd baf8 2ebb 27f2 38bd ad4c 44bc
000002e0: fdd8 0ebc f590 9b3a 7157 9dbc d068 563c
000002f0: 178b 94bc 65be adbb 284b dc3c 1929 d4bc
00000300: 672f a13b d954 12bc 39f7 e93c cbf4 20bb
00000310: 714b a43b 2c0c 46bc 6363 56bc cc88 88bc
00000320: dd54 193b 0b4e 8b3b a1c7 13bb 542c 1ebc
00000330: ed0c 85bb 8305 063c 4d41 1b3b df1a 2d3c
00000340: 2e67 743c 3500 2bbc eb8d 243c 1d39 d53b
00000350: 56db 35bc 0f54 1abd 4cbb 4dbb 5264 ed3b
00000360: 4c0b bc3c 45ef a83b 1e11 a1bc 8c93 49bc
00000370: f935 0cbc d862 a63c 81a9 32bd 0265 45bb
00000380: 5a05 9dbc 3fbc 5dbd 7bdb fdbc efaa a63c
00000390: 7839 fb3a 166a 6c3c 2c2f c13b 600a b6bb
000003a0: 6f1d 2abc aec3 963b 9a70 ccbb 814a c7ba
000003b0: 992f 68bc f6be e4bb c458 c83b d339 3dbd
000003c0: 0191 febb ed2d efbc 669e 2d3a 6130 20bd
000003d0: c460 ce3b 6746 983c d4f1 01bd 4bc5 613c
000003e0: 39b4 633c a64c 2c3a 705c 82bc 6a0d 6e3b
000003f0: 7bf9 8fbc ef50 90bc 88df cd3b f9eb c83c
0.016650895 0.02434653 -0.0049333107 0.0026157591 0.0010700945 -0.010054577 -0.009954601 -0.044886533
-0.027223388 -0.04293625 0.07730951 0.002258959 0.004460522 0.0044673993 0.012455688 0.021556262
-0.00313459 0.103744015 -0.0071514407 -0.0029570141 0.0023117152 -0.00046160806 -0.016461452 -0.015027073
-0.048928775 0.011327619 0.010658941 0.0054728575 0.005442112 -0.046035707 -0.009007746 -0.0043430193
-0.0037490116 -0.0024436107 -0.024499947 -0.0037706988 -0.0005465004 0.023548257 0.022057708 -0.0027322513
0.01719107 0.02013732 0.07329009 0.019768042 0.0030437524 -0.020236326 0.012339953 -0.02290792
0.0070216744 0.037024442 0.008000508 0.030213967 -0.013115917 0.0035480552 0.035004217 -0.0057779565
-0.01470436 -0.0019106974 -0.018751403 0.0033807466 -0.008363626 -0.0029639276 -0.08421195 -0.024093023
-0.001219077 -0.008181426 -0.004233932 -0.012548441 0.016857257 -0.019981185 0.0019566969 0.013376868
-0.007129463 -0.006480264 0.0034452737 -0.012164079 -0.0070970375 -0.0332564 -0.011229374 0.002195495
0.024219329 0.006387932 0.008036658 0.002833341 0.0010090275 -0.041668184 0.0006696262 0.0043268693
0.01714589 0.09660872 0.010220024 0.029438784 -0.012077734 0.026000872 -0.021908643 -0.016385294
-0.040074475 0.02086358 -0.01837092 0.016770516 -0.011168806 -0.025849614 0.017580854 -0.0028781868
-0.012497812 0.008229594 -0.035487 0.0053908816 0.01680073 0.0077669253 0.019659871 -0.075823165
0.008552802 0.008358167 0.00016092656 -0.0640221 -0.00621405 0.012328947 -0.019479508 0.010719037
0.0022460364 -0.028286807 -0.0108788805 0.021410739 0.0058962847 -0.027937116 0.0077501205 0.056895845
0.015806789 -0.00033083104 -0.0008779819 0.018762212 -0.004531375 0.0025606554 -0.00067099166 -0.0044247573
-0.026499322 -0.020814523 0.009250886 0.007017683 0.0008019943 0.017051738 -0.0013091685 0.027513102
-0.013671107 -0.050739195 -0.009678311 -0.0014293273 0.0055183545 -0.013258812 -0.00767266 -0.008027985
0.0049011223 0.030148206 0.0055437437 -0.0038928709 0.0128604565 -0.0024618628 0.004849932 0.00604836
0.0040526767 0.004564957 -0.005685552 -0.0063199666 -0.001392462 -0.00797385 -0.009810612 -0.026143447
0.00466626 -0.0061247842 -0.02283176 0.028511044 0.0038212414 0.013706742 0.0069333822 0.010783846
-0.0013962013 0.002620797 -0.009559133 -0.016473351 -0.035058 -0.0026698546 -0.04515281 -0.011981172
-0.008718726 0.0011868762 -0.019206734 0.013086513 -0.01813273 -0.005302238 0.026891306 -0.025898503
0.004918981 -0.008931362 0.028560268 -0.002455997 0.005013876 -0.012087863 -0.013085219 -0.016666792
0.002339653 0.004251247 -0.0022549408 -0.009654123 -0.0040603788 0.008180025 0.0023690045 0.010565489
0.014917178 -0.010437061 0.0100436015 0.0065070526 -0.011099657 -0.03767782 -0.0031392155 0.007244625
0.022954606 0.0051554763 -0.019661482 -0.012303244 -0.00855779 0.020310804 -0.043618683 -0.003012002
-0.01916759 -0.054134604 -0.030988446 0.02034518 0.0019166907 0.01442959 0.005895516 -0.005555436
-0.010382994 0.0046009636 -0.006239009 -0.0015204699 -0.014171504 -0.006980772 0.0061140973 -0.046197724
-0.0077687507 -0.029196704 0.00066230295 -0.039108638 0.0062981565 0.018588258 -0.031724766 0.013779948
0.013897949 0.0006572701 -0.015913218 0.0036323913 -0.017575016 -0.017616717 0.0062827505 0.024526583

dense/bias:0 f4 [128]
00000000: 4a9e e63c 07c2 3d3e 302c e53d 0857 8b3d
00000010: 3e74 1b3e def3 713e 8db9 1f3e 1868 893d
00000020: 8db1 cf3d 1c84 c73d b94d 263e 921f 0d3e
00000030: 8709 d63d 4f57 ab3b e924 603d 0e27 c43d
00000040: 01aa 413e 25c6 a63d b894 f83c c667 8f3e
00000050: 09b3 aa3c 2f0b 5b3d 8ea3 fd3d b43e 8b3c
00000060: f8bb 083e 3bd2 9e3d f91c eb3d 389f 143e
00000070: 6804 383d e21a 8d3d 2b63 cd3c 0013 c23b
00000080: 8fb2 6b3d c7b1 603d 7601 493e 7725 6dbc
00000090: 45df 443d 0e15 6d3d fe33 b13d 757a e93d
000000a0: 5020 393c b02c ac3d 1872 3f3e a6c2 bf3d
000000b0: e89c 823d af61 8e3d 35e6 023e 29a1 c63d
000000c0: 393d 723d 1ee2 083e 4e56 113d 6bd1 803d
000000d0: ccab 3d3d 83ba 573d 304e e33d e025 353d
000000e0: bbdf 743d 1053 113d 185b e53d c257 4fbd
000000f0: 00c4 8a3d e4c8 663d e4e5 c33d 8fdb e33d
00000100: cf4d 943d 7021 9e3d 46af 8f3d 0027 4c3c
00000110: 3ef1 a13d cd7f b13d 321f 233e e857 453d
00000120: 50d0 5d3d f49d ac3d 1823 343e e91a cf3d
00000130: 80cf 3dbd 8c81 c83d cdb4 cabc 439d 693d
00000140: 2b2b 903d 5173 5e3d 6098 8c3c 7f43 303d
00000150: 8eda 85bd 1eb2 083e 0cc9 683e 0fef a83d
00000160: 1068 d23d 5d01 103e 446a 133d 3317 863c
00000170: e9cf 1e3e fbe9 503d f4f5 fd3c 809d 583d
00000180: 3ffb 023d 7f12 983e fa12 913c 871e 8d3c
00000190: 1d2b 833d 7db9 003d 3954 0d3e e585 c83c
000001a0: 57c6 a33d 4456 963d 9471 bb3d eddf 033e
000001b0: 38d0 8f3d a1f0 923e bed8 0a3e 43ae 6a3d
000001c0: acdf b03c 6847 773e 07e0 103d 5290 d43d
000001d0: ad48 8d3d 5521 0c3d a570 043e 8951 8a3d
000001e0: 6f42 cf3d c161 d03d b940 783d e3d9 8d3d
000001f0: 8f14 873e 4759 2b3e e37c e53d 8d82 d63c
0.02815165 0.18531047 0.11190069 0.06803709 0.15181062 0.23628184 0.15598126 0.067093074
0.10141287 0.09741995 0.16240586 0.13781574 0.10451036 0.005228914 0.0547227 0.095777616
0.18912508 0.08143262 0.030344352 0.2800886 0.020837324 0.053477462 0.12384711 0.016997673
0.13352954 0.07754942 0.114801355 0.14513862 0.044926077 0.06889893 0.025071701 0.005922675
0.057543334 0.05485704 0.19629464 -0.014474264 0.04806449 0.057881407 0.08652495 0.1140031
0.011299208 0.08406961 0.18695867 0.09363298 0.06377584 0.069522254 0.1278313 0.096987076
0.059140418 0.13367507 0.035482697 0.06289943 0.046306416 0.052668106 0.110988975 0.044225574
0.05978368 0.035479605 0.111990154 -0.0506208 0.06775665 0.056343928 0.095653325 0.11125862
0.07241403 0.077212214 0.07015853 0.01246047 0.079073414 0.08666954 0.15929869 0.048179537
0.05415374 0.08428565 0.17591512 0.101125546 -0.046340466 0.09790334 -0.024744416 0.057034742
0.07039484 0.054309193 0.017162502 0.04303312 -0.065358266 0.13349196 0.22732943 0.08248722
0.102737546 0.1406302 0.035990015 0.016368484 0.15508999 0.05100439 0.031001069 0.05288458
0.03197789 0.2970161 0.017709244 0.01722647 0.064047076 0.031426895 0.1380166 0.024477908
0.07996815 0.073406726 0.09152523 0.1287839 0.070221364 0.2869921 0.13559243 0.057295095
0.02159103 0.24148333 0.0353699 0.103790894 0.068986274 0.034211475 0.12933595 0.06753833
0.10120093 0.10174895 0.0606086 0.06926324 0.26382872 0.16733275 0.11205461 0.026185298

conv2d_7/kernel:0 f4 [64, 48, 2, 2]
00000000: 5077 fb3b 9456 423c 428d c03c 3aee 04bd
00000010: be86 dc3d 815c 863d 8177 a63d 612b 1d3d
00000020: 83a8 7b3d 1c54 06bd 800a 983d 8b24 a4bb
00000030: c690 12bd a14d 66bd 3a3d da3c 9bd1 233e
00000040: 1073 2abd 6dbd 0bbc 1277 a3bd 16cd 92bd
00000050: 7bd2 31bd fc16 a5bd 9670 b8bd e06a c63b
00000060: b54b 5e3d 374a 073e 58ad 1e3d 02fb 34bd
00000070: a160 34bb fdf7 a8bd 4b7a 2e3d 2bbd 123c
00000080: ce52 ae3c b21c f13c b523 92bc ece6 c1bd
00000090: f4d7 a63c 2dbf 1dbd 8d69 27bd 1aa5 39bd
000000a0: fdf9 e13c 3a94 09bd 5273 723c ccfc 23bb
000000b0: d6b9 42bd d086 67bd 012c 52bd 1f17 803c
000000c0: ce02 823c 7dc0 eebc 2003 b13c 269e c1bd
000000d0: 3cc5 83bd 5431 943d 8910 0b3b 10ac f03c
000000e0: e8f5 f9bd 284c 2a3c e2bc 63bd 9d85 57bd
000000f0: bdf0 c73c 6545 50bd 2b2f c9ba 3f99 7e3c
00000100: 2316 b13d 8b14 c33c 9f5d 613d 3833 103d
00000110: effd cabd e0b8 a93d 0749 90bd 0a42 2a3d
00000120: 2079 66bc 43bc eb3c 3dcf 3abd ed24 cc3c
00000130: 7858 a1bd ec40 2ebd 43c8 7b3c 4942 88bc
00000140: f836 aabd be61 0f3d 221c 20bd a602 d83c
00000150: 45af edbb 0e79 ad3c 85f6 8b3c 3cbd 4ebd
00000160: 595d 28bd ce24 ecbd f6a3 21be eba5 6bbc
00000170: d02c e73b a296 483d 22b5 c43b e144 0e3c
00000180: aacf ffbc e371 4fbd 21df 0abb d0db 94bd
00000190: e47d ac3d 0562 b53b 8498 e03c 97b4 7a3c
000001a0: f9d1 013e e50d ac3d 27c3 66bc 77e5 cc3c
000001b0: a6dd 2abd 3c56 36bd a9ee 013d 5d72 88bb
000001c0: 69cc 313c f29f 303e 832a 0d3d 89a9 043e
000001d0: c8be a83d e22a 5bbd 202f 393d baf0 9d3b
000001e0: e869 96bc 2e45 c63d c33a f63d 8460 c9bc
000001f0: 0d8f ad3d 1519 5c3c eaf0 eb3d e2de 1d3d
00000200: 66db df3c 592e 39bd d44f f63c e285 abbd
00000210: 22b9 243d b218 39bc 1e06 f53d 172c 06bd
00000220: 5f65 33bd 8189 e9bc 561b 6ebd ab16 29bd
00000230: fd79 bbbd 0854 97ba f5c2 d63c a0fa 933c
00000240: 5b6b a43c 3ac4 bc3b 3698 fb3c b9e0 71bc
00000250: 9534 8abd d5ca 08bd 4606 82bd 29ce 93bd
00000260: d0a9 973d 42ee 59bc f4c8 e93c ce10 96bc
00000270: cae4 39bc 715a 7e3d fede 06be 879d 04be
00000280: f2bb 973d 36f0 9e3d 0817 e93c 9671 573c
00000290: 0687 98bc 21af 4f3c 08cc 883d ce84 20bd
000002a0: 4a02 b1bd 92a8 713d b637 d1bd 7bd1 75bc
000002b0: 829d 9cbb 4977 31bc a56c 28bd f186 8bbd
000002c0: 3344 de3c 5c0f f8bc 9ab2 37bd 2262 673d
000002d0: f8f7 1ebd c191 59bb 8f2b 57bc 8502 d9bc
000002e0: 4c6d 3e3d 8d18 1bbd a90b 113d 2dd3 f8bc
000002f0: b931 dfbb de95 b2bc 11b6 f2bc 22e7 e8bc
00000300: 8b55 16bc cf23 243c 1f0b 4abc 5b81 8ebc
00000310: 1d3c 0cbd 2800 89bd 5d10 3b3e fda9 c2b9
00000320: 69a9 8e3d eadc b33d 670a debd 5c9c f3bd
00000330: 7699 81ba 18a2 c6bd bb21 debc 129d 3dbd
00000340: cfc0 c63b a619 5c3d 3d8c c5bd fd5f 3cbd
00000350: 358c c23d 73e5 20bd 9f72 6abc 358a dabd
00000360: d196 353d db6c 853d 2406 95bd 435a 9abd
00000370: c69c ce3c c06c c63c cf40 2abd ced1 743d
00000380: 0653 273d 00f4 0b3d e537 bebc 0c4b a7bd
00000390: 4c35 853d 84db 573d f4e9 a93c f8b6 f9bc
000003a0: ad95 3a3d e5b3 2abd ea48 9d3d cef0 c8bc
000003b0: 28b5 083d cb12 3d3d 7f9e 83bd f5c5 94bd
000003c0: 8c94 2bbc 77d4 ebbd e67a 87bd 6b0d 34be
000003d0: 65e6 e7ba 9196 71bb a960 483d 7628 783e
000003e0: 7aa7 5c3c b91a 2fbb 32e6 f6bc 7968 593d
000003f0: 57b6 183d f749 7c3a 9e0f 8cbc 4912 80bb
0.0076741353 0.011861462 0.023504857 -0.032453753 0.107678875 0.065606125 0.08128262 0.038371447
0.061440002 -0.032795057 0.07423878 -0.005009239 -0.035782598 -0.056226376 0.026640523 0.15997927
-0.04161364 -0.008529049 -0.07981695 -0.07168023 -0.04341362 -0.080610245 -0.09005849 0.006055221
0.05427142 0.13211904 0.038739532 -0.044184692 -0.0027523416 -0.08250425 0.042597096 0.008956234
0.021279719 0.029432628 -0.017839292 -0.09467873 0.020366646 -0.038512398 -0.040872145 -0.04532347
0.027585024 -0.033588625 0.014798002 -0.0025022505 -0.04754051 -0.05652505 -0.051311497 0.015636025
0.015870478 -0.02914452 0.021607935 -0.094539925 -0.06434104 0.07235971 0.0021219573 0.02937892
-0.12205106 0.010394134 -0.055600055 -0.052617658 0.024406785 -0.05084743 -0.001534914 0.015539466
0.086468 0.023813507 0.055020925 0.035205096 -0.09911715 0.08287215 -0.07045179 0.041566886
-0.014066964 0.028776294 -0.045607794 0.024919951 -0.07878202 -0.042542383 0.01536757 -0.01663317
-0.08311266 0.035005324 -0.03908933 0.02636845 -0.00725356 0.021175887 0.017085323 -0.050473437
-0.04110465 -0.115304574 -0.15785202 -0.01438282 0.0070549026 0.04897178 0.006003038 0.008683414
-0.031226952 -0.05064572 -0.0021190124 -0.072684884 0.08422449 0.0055353665 0.027416475 0.015301845
0.12677754 0.08401088 -0.014084614 0.025011761 -0.041715287 -0.044515833 0.031721745 -0.004164024
0.010851958 0.17248514 0.03446437 0.12955298 0.08239514 -0.053507693 0.045210958 0.0048199566
-0.018361047 0.09681164 0.12022927 -0.024582155 0.084745504 0.013433714 0.1152056 0.038542636
0.027326297 -0.045210216 0.030067362 -0.083751455 0.04021562 -0.011297392 0.119640574 -0.03275689
-0.043797847 -0.02850795 -0.05813154 -0.041281383 -0.09154127 -0.0011545429 0.02621601 0.018063843
0.020070722 0.0057606967 0.030712228 -0.014763051 -0.067483105 -0.03339656 -0.06348853 -0.07217056
0.07405436 -0.013301434 0.028538205 -0.01831856 -0.0113460515 0.06209797 -0.13171002 -0.12950717
0.074088946 0.0776066 0.028453365 0.01314964 -0.018619072 0.012676031 0.06679541 -0.039189152
-0.08643015 0.05899865 -0.10215704 -0.015003557 -0.0047795186 -0.010831662 -0.041119236 -0.068128474
0.02713213 -0.030280761 -0.044848062 0.05649007 -0.0388107 -0.0033198448 -0.013132944 -0.02649046
0.046490952 -0.03786521 0.03541151 -0.030374134 -0.0068113473 -0.021799978 -0.029627832 -0.028430525
-0.0091756685 0.010018303 -0.012331753 -0.017395666 -0.034237016 -0.06689483 0.18267961 -0.00037129215
0.06965906 0.087823704 -0.10841828 -0.118950576 -0.0009887654 -0.09698886 -0.027115693 -0.046292372
0.006065465 0.053735398 -0.09645889 -0.04598998 0.094993986 -0.03928132 -0.014309554 -0.10670892
0.044333283 0.06514903 -0.07276562 -0.07536747 0.02522124 0.024221778 -0.041565713 0.059770398
0.04085066 0.034168243 -0.023220012 -0.08168611 0.06504306 0.05269958 0.02074144 -0.030482754
0.0455529 -0.041675467 0.07679923 -0.024528887 0.03337589 0.0461605 -0.06426715 -0.0726432
-0.010472428 -0.11515134 -0.06615238 -0.17583244 -0.0017692564 -0.0036863426 0.048920307 0.24234185
0.013467664 -0.0026718809 -0.030139063 0.05307815 0.037283268 0.0009624059 -0.01709729 -0.0039084298

conv2d_7/bias:0 f4 [64]
00000000: 8a87 36bd 8574 503d f9ba 173d 859a b63c
00000010: e23f ad3c 81cb 973d da47 3c3d 8414 383e
00000020: 0162 f33d b8df 803e 5526 413d 6e5d a53e
00000030: 5f5d 0bbe 4774 fd3d 2c1a ee3c 276d b33d
00000040: 4c34 0a3e 200e f73d 49f9 33bd a10d 7c3e
00000050: 6901 373e b93c 813a 2210 ca3d ebeb 543e
00000060: e21c 643d 6a2c 103e 49fd 11bc bea9 793e
00000070: 8e2e 583d 7105 7cbd 73c6 723e 9442 053e
00000080: 0624 02be 1557 1b3e 66e3 ac3c 1278 04bd
00000090: 7ecd a53d a2fc 9a3d b1eb 363e 7ed2 9c3e
000000a0: 2b18 553d 8ecb a33d dea7 793c ab50 0b3e
000000b0: 2e28 ed3d 14b4 903d ec2a 5d3e 92e1 553d
000000c0: f0f9 b83d 2192 9d3e 75a1 813e 6459 15bd
000000d0: 488d 873e 61eb d03d f77f 003e 02a8 5d3e
000000e0: 4be3 393e d7ef 263e 94f3 863d cf7f 093e
000000f0: c465 e33c 35e8 37bc d845 453b c673 0a3e
-0.044562854 0.05089237 0.037043545 0.022290478 0.021148626 0.07411862 0.04596696 0.17976576
0.11883927 0.25170684 0.047155697 0.32297844 -0.13609837 0.12375694 0.029065214 0.087610535
0.13496512 0.12063241 -0.04393891 0.24614574 0.17871632 0.0009860016 0.09866358 0.2079312
0.055691607 0.14079443 -0.008910486 0.24381158 0.052778773 -0.061528627 0.23708515 0.13013679
-0.12709054 0.15169938 0.021104526 -0.03234107 0.08095835 0.07567717 0.17863347 0.30629343
0.052025 0.07997809 0.015237777 0.13604991 0.11579929 0.07065597 0.21598405 0.052217074
0.09032047 0.3077555 0.25318494 -0.036462203 0.26474977 0.10201145 0.12548815 0.21646121
0.18153112 0.16302429 0.065894276 0.13427661 0.027758487 -0.011224796 0.0030101445 0.13520727

conv2d_6/kernel:0 f4 [48, 28, 3, 3]
00000000: 9a88 693d 6d57 6dbd 8b51 223c 1d95 a5bd
00000010: d46c 90bc 654d efbb ccdf d2bd 7931 c0bc
00000020: d2f7 fabc eed8 01be 98cc a33d ed4f 7d3d
00000030: 2d64 41be 8ff5 cabc 14d9 ec3c de15 62bd
00000040: b786 2ebd 75e9 233d e75c 85be 892c 9cbb
00000050: 6042 503d 667a 7abe 9e36 79bd 5e38 79bd
00000060: 2816 83be 2776 ea3b 9bf7 693c 71b0 913d
00000070: 7e25 0a3c 86d2 bb3c fc07 06bd eb79 0ebc
00000080: 1a68 6c3b 58c4 03be c603 2d3d 998b 293d
00000090: f6cf f73c 8776 283b 9a4e 1c3c 1c63 ab3c
000000a0: 2dde 2ebc 74ca 97bc 2461 b33c f020 acbb
000000b0: 6c0c 9cbc 3bd5 aabd 04f7 4c3a d879 083d
000000c0: 7857 04be 74a6 c5bc d085 353d 37e5 d4bd
000000d0: 9074 cbbc 87c3 d83c 62ff 31bd 630a c73b
000000e0: 344b a5bc b9ec 27bb c31b 0e3d c5b0 fbbb
000000f0: 8dec da3c 0034 f93c 2d7c feba 82a1 623b
00000100: 30bd b93d e97f 68bc 9a4c 233d 9954 853d
00000110: 96b9 933c c75d 083e b4cd 913d 53de 263d
00000120: 67c0 c6bd 37d4 76bd 9108 85bb 79b6 18be
00000130: 80d9 a1bd cce5 52ba adb7 16be 7916 74bd
00000140: 06aa 023d 7110 c3bc 8f13 8b3b 8cc2 563c
00000150: 4941 58bd 38a4 3c3b cb9f 793b 77a9 58bc
00000160: e067 06bc 2b89 2e3c 053e 0abe 4581 c7bc
00000170: 482c 253d f00d 80bd ac2f e0bd 7438 1ebd
00000180: d9d6 933d 1264 61bc 6506 f6ba f28f 1b3c
00000190: f812 12bc 6a00 273d 2534 5bbd 10fa 6dbd
000001a0: f572 0bbd cea9 38bc 84f5 3abd 5edb cdbc
000001b0: 33d7 22bd ab18 073b 3168 773c a983 15bd
000001c0: 229a 8f3c ddf4 173c c13d efbc f9f7 ae3c
000001d0: 9721 0a3c c300 17bb ffda 6c3b df59 cdbb
000001e0: 3c01 baba e502 94bc 9f88 8dbc 4f6a 9ebc
000001f0: a4a7 f9bb d705 843c c837 8fbd 3fc8 e5bc
00000200: 5ab8 fe3b 19cb 13be ea64 35bd 6f0c e33c
00000210: 9b97 1abe 1866 c0bb 22f2 7e3d d7f4 823d
00000220: 7de5 193d 4a03 373c 2874 f7bc 3aa2 f1b9
00000230: 0cfe 973c 7828 9fbc 2f4b 24bd da12 e1bc
00000240: cfe7 dc3d 991f 82bd 0125 0c3c 945d 123e
00000250: b930 05be 5731 89bb dd14 453e 66d5 16bd
00000260: 38c0 88bb bf31 863e e6ca d83b add2 90bc
00000270: 82ff 663e ae06 14bd 8e3f 4bbc 832e 6f3e
00000280: a56a a6bd d01f 0fbd 1fd5 0b3c 74f7 1fbc
00000290: a8f4 c83c 1536 b6ba 2a77 9ebc 1321 63bb
000002a0: 3b2b 283d b8ba 113b e554 a13c d5c5 2ebe
000002b0: 0ebe 06bc 8cfc a9bc ebc1 22be f085 ef3c
000002c0: f8a2 a3bc 6653 40be 8700 dc3c c495 093c
000002d0: 0856 2bbd 4194 70bd 3b94 14bd 650b 8bbc
000002e0: d1ac 7cbd e9c9 d1bc 19e1 ecbd dcf7 c9bd
000002f0: 8ff8 50bd 6534 17be 2a73 9d3c b2c2 36bb
00000300: 7a8d d3bd 6632 903a b7db 51bc cc91 603d
00000310: 73be 743d 97cf 0e3d 6f7c 203c a49c d23c
00000320: aee0 68bb feda 6dbb 11c6 053c 8f46 663c
00000330: 2304 32bc c0d1 283d 4559 a9bc f764 75bd
00000340: 6062 283d 1b6d 023d ad18 9dbc 98ea 38bd
00000350: 1b45 94bc 5ce3 de3c 7bb2 883c e110 0f3c
00000360: 77d3 c13c e733 f23a 27b0 463c ecc8 35bc
00000370: 8347 b6bc 616b 71bb a8df f63c bfe2 cdbc
00000380: 431a fc3c ae29 4e3d 08ee b33b 09ec 2d3c
00000390: 1e1f bdbd 55f7 dfbb 3725 d1bc 77d1 9fbd
000003a0: 4f63 543d 2a7a 4b3c b36c a33d 9d45 95bc
000003b0: cb9e 3ebc c0bc c93d 6153 d83c ee80 b13a
000003c0: fd21 b23d 75dd e53b 4418 b63b 3396 063e
000003d0: cddb 843d 3622 393d a2d7 a63d 4cef 9d3d
000003e0: 2172 a53c 6247 023d 8147 a73d 31bb 113c
000003f0: e325 17bd c195 103d 212c b33c af0b 8abd
0.05701504 -0.057944704 0.009907137 -0.08085082 -0.017630018 -0.0073029273 -0.10296592 -0.02346109
-0.030635748 -0.12680408 0.079980075 0.0618438 -0.1888587 -0.024775295 0.028912105 -0.055196635
-0.042608943 0.040017564 -0.2604744 -0.004766051 0.05084455 -0.24460754 -0.060843103 -0.06084477
-0.2560284 0.007155198 0.014280225 0.07113732 0.00843179 0.022927534 -0.03272246 -0.00869606
0.0036072792 -0.12867868 0.042239927 0.041392896 0.03025053 0.0025705413 0.009540224 0.020921282
-0.010673088 -0.018529154 0.021896906 -0.00525295 -0.019048892 -0.08341452 0.00078187906 0.033319324
-0.12923992 -0.024127223 0.044317067 -0.10395282 -0.024835855 0.026460422 -0.043456443 0.0060742362
-0.020177461 -0.0025623275 0.034694444 -0.0076809847 0.026724124 0.030420303 -0.0019415669 0.003458113
0.09069288 -0.014190652 0.039867975 0.06510276 0.01803283 0.13317023 0.07119313 0.04073937
-0.097046666 -0.060260978 -0.004059859 -0.14913358 -0.07902813 -0.00080451067 -0.14718504 -0.059591744
0.03190043 -0.02381155 0.004244275 0.013107907 -0.052796636 0.0028784405 0.0038089629 -0.013223997
-0.008203477 0.010652821 -0.13500221 -0.024353633 0.040325433 -0.06252658 -0.10946593 -0.038628057
0.07218713 -0.013756769 -0.0018770216 0.009494768 -0.008915655 0.04077188 -0.053516526 -0.058099806
-0.03404518 -0.011270953 -0.0456443 -0.025129016 -0.03975601 0.0020614068 0.015100525 -0.036502514
0.017529551 0.009274689 -0.029204251 0.021358477 0.00843086 -0.0023041226 0.0036141274 -0.006266817
-0.0014191042 -0.018067786 -0.01727706 -0.019337801 -0.0076188613 0.016116066 -0.06993061 -0.028049586
0.0077734413 -0.14432944 -0.044285692 0.02771589 -0.15096895 -0.0058715455 0.062242635 0.06394356
0.037572373 0.011170218 -0.030206755 -0.0004608797 0.018553756 -0.019428477 -0.040110763 -0.02747481
0.107864015 -0.06353683 0.008553744 0.1429351 -0.13006867 -0.00418679 0.1924624 -0.036824606
-0.004173305 0.26209828 0.0066159843 -0.017678583 0.22558406 -0.036139183 -0.012405289 0.23357587
-0.081258096 -0.03494245 0.008534699 -0.009763587 0.024530724 -0.0013901616 -0.019343931 -0.0034657165
0.041056853 0.0022236537 0.019693801 -0.17067654 -0.0082240235 -0.020750307 -0.15894286 0.029238671
-0.01997517 -0.18781814 0.02685572 0.008397523 -0.041830093 -0.058735136 -0.036274176 -0.016973207
-0.061688248 -0.025608974 -0.115663715 -0.098617285 -0.051018294 -0.1476608 0.019219954 -0.0027887044
-0.10329719 0.0011001348 -0.012808732 0.054826543 0.05975194 0.03486594 0.009795292 0.025709458
-0.003553431 -0.003629386 0.0081648985 0.014054908 -0.010865244 0.04121566 -0.02067245 -0.05991074
0.041109443 0.031842332 -0.019176805 -0.0451456 -0.018099358 0.027208023 0.016686669 0.008732052
0.023660405 0.0018478603 0.012126959 -0.011095267 -0.022250896 -0.0036837684 0.030135944 -0.025132535
0.030774241 0.050332718 0.005491022 0.010615357 -0.09234451 -0.006834904 -0.02553044 -0.07803624
0.05185252 0.012419263 0.07979717 -0.01822167 -0.011634539 0.09850454 0.026406946 0.0013542452
0.08697889 0.007014925 0.005557092 0.13143234 0.06487236 0.04519864 0.081465974 0.07711658
0.020196022 0.031806357 0.08167935 0.008894728 -0.036901366 0.035299066 0.021871628 -0.0674051

conv2d_6/bias:0 f4 [48]
00000000: 6692 c03d 6292 a73e c6b9 303e 0345 ee3c
00000010: 5fb4 903e f83c a73d 2fda cf3d 7fa5 983c
00000020: 4984 99bd 4bc9 ab3d c7be 9fbd 1204 9cbc
00000030: b1a6 46be 826c e93d 6cbd 233e 5417 dcbd
00000040: 0b63 113e 5fd0 8f3e 0682 573e 15b9 ec3d
00000050: 4709 513e 67ba cbbb c64c a03d 4888 ac3d
00000060: d2c5 f03d aa89 0b3e 0da9 863d ee23 1bbc
00000070: b5ed 573e 0092 a6be 7b6b 193e e83c 7ebd
00000080: 946a 0fbe d109 2d3e 265f 163e 254e 183e
00000090: 3a2c 0d3e 35a1 653e 5ba1 09be bbdb 2d3e
000000a0: 0393 a83e d412 e73c 1f20 033e bbf3 2dbd
000000b0: e0dd d13d 5b59 efbd 960a 07be 0270 3cbe
0.09402923 0.3272887 0.17258367 0.029085642 0.28262612 0.08165926 0.10149037 0.018633602
-0.074959345 0.08388003 -0.0780006 -0.01904491 -0.19399525 0.11397649 0.15990227 -0.10746637
0.14197938 0.28088662 0.21045694 0.11558739 0.20413695 -0.0062172893 0.07827143 0.08424431
0.11756481 0.13626733 0.06575213 -0.0094690155 0.21086772 -0.32533264 0.14982407 -0.062069803
-0.140055 0.16898276 0.14684734 0.1487356 0.13786402 0.22424777 -0.13440458 0.16978352
0.3292466 0.02820722 0.12805222 -0.042468768 0.102473974 -0.11686965 -0.13187632 -0.18402103

conv2d_5/kernel:0 f4 [28, 3, 3, 3]
00000000: c8ce 00bf 6e59 d1be e1ab 95be 1d95 9a3c
00000010: a545 4f3d 3acb 0a3e 65e8 c23e 8fa4 c53e
00000020: d4ab 9d3e 0756 ccbe 1bdd 97be a474 3cbe
00000030: a447 55bd d12a b2bc b6ec 593d 56a2 743e
00000040: 2162 873e 9391 2f3e a990 9bbe c934 4ebe
00000050: 0314 cebd 1a28 d0bc 5264 a13b 0da4 cb3d
00000060: fc3f 5e3e 07c2 823e 51bd 2e3e b628 71bd
00000070: ad2f d3be 5d0d 3a3e 168e d03e 2d35 f2be
00000080: 0e43 a8be f7aa e63e 1d15 a23e 0ce6 02be
00000090: f5b3 1bbe 7755 6ebe 0bc7 d23e b1e4 663e
000000a0: 82db d0be 4e52 e0bd 27af 063e 0894 223e
000000b0: 3a1a 8abd 7eda dbbd a858 f0bd 9aca 053f
000000c0: 6e23 523e 931e c1be 8a67 68bd 62b7 8a3c
000000d0: baf3 033d 0e43 27be 56da b7be 0dd7 77bd
000000e0: 1898 8d3e e03c debe bbd1 f8bc 171c cd3e
000000f0: b221 b6be 5115 05bc 6461 7d3e 9acf 95be
00000100: 0ff7 173a 0194 7f3e 7ec2 9cbe ef80 af3d
00000110: c561 c83e 3793 6fbe 0f48 833d 306a 543e
00000120: 59b2 80be f2ee 34bc e50a 363e 20dc 84be
00000130: 4ab0 953d e5f6 a23e 3f0a 2dbe b8d8 883d
00000140: 4d5e 283e 3b30 c33e 7499 233e d880 30bd
00000150: e8e4 a3be 9135 24bf 2c33 dabd 3a08 133d
00000160: 60d3 973e 36e1 6d3e c18a af3e 86b1 383e
00000170: 88a7 b83b 5973 abbe e4d3 11bf 1450 94bd
00000180: ce00 39bc a899 933e 35a9 353e 0ee3 973e
00000190: f322 fc3d b9b8 51bd 4d28 99be be50 03bf
000001a0: ee04 46bd 8f22 b2bb 3e37 a23e 804e 4e3e
000001b0: 1db8 33bd 980c 93bd d611 d6bc dde5 8dbd
000001c0: 4d21 093d 8c91 71bd 09fe 0ebe 0283 8ebd
000001d0: 418f 2ebd d0c0 963e fabb 653e d52f 883e
000001e0: 2768 8c3e e0eb 9b3e 01e3 623e 72db 813e
000001f0: 0887 813e 8727 8d3e 6cab 3bbe 3fb6 7fbe
00000200: 69b9 30be 7d5a 5cbe aa19 50be 3d54 79be
00000210: 84f0 0fbe baae 41be 866d 2dbe 668b afbd
00000220: 7487 d13e 2a9f 96be 8e4c 38be cbf1 f53e
00000230: 1e0a afbe 5463 bbbd 3fa6 943e d1cd 26be
00000240: c51f 1abe 8667 c03e f21a 85be b192 81be
00000250: a65b e83e 1532 92be 3fe5 0bbe 0ffd 913e
00000260: 4bcb d0bd a3c4 debd 8d07 b73e 35da 52be
00000270: 95b1 49be b1c8 e43e d520 6abe c531 14be
00000280: 66e3 743e 7bf0 f5bd 24c0 d73d dc83 663e
00000290: 02e2 bd3e 67d9 12be 6f69 8f3d 6311 713e
000002a0: ae8c f3be 66a1 fcbb b62c 233e 47aa 30bd
000002b0: 0a9a cabd 9ce5 9fbd 9df9 88bb 93cf 97bd
000002c0: c413 b2bd d213 9ebd 4ee8 8d3d 4ca1 ecba
000002d0: 08d2 0c3c 2cb4 e9bd e1c8 31be a444 183e
000002e0: f224 ebbc 7eb0 2fbe 64fa 0b3e 6eda 1f3e
000002f0: 2b91 4fbd 5151 86be 6950 c7be fb7d b9be
00000300: 7efe 103e 27d7 88bb 9323 00be 044f d63e
00000310: fe57 5c3e 3b51 a53d 5bcd 67be 1074 9fbe
00000320: 9cb9 9ebe 9eb5 3f3e 5898 a83d 69db 7bbd
00000330: 4306 d83e fffb 723e d799 a53d f875 11be
00000340: d56a 68be d50a 7ebe 0b27 493e e16f c33d
00000350: ed52 84bd b424 a93e 11bd 173e 5f0e 7b3b
00000360: 2b0e 843e 39f9 ba3e 7942 3a3d 6b41 a93e
00000370: e4aa 033d ac81 a2be 3569 3bbd d248 a3be
00000380: b1ff 86be f540 6e3e 0c3d bb3e eb28 c83d
00000390: 1432 7d3e b5cc cdbc 423e 92be cfbf 2fbe
000003a0: 8bc6 c3be 8650 45be ff05 853e cacc 973e
000003b0: de1a 4abd f19d 953e 1e6c 0cbd 33f5 9fbe
000003c0: 29f5 d7bd e6fd 9fbe ce2f cebd be2e a2be
000003d0: bfb1 60be 0c21 aabe 5f9b 91be 70af a7be
000003e0: 6611 b3be 120b b1be 0e88 c5be 1cdd a2be
000003f0: 57c0 5f3e 3fb1 6f3e 801e 353e 79ac 903e
-0.50315523 -0.40888542 -0.29232696 0.01886993 0.050603528 0.13554087 0.38067928 0.3860211
0.30795157 -0.39909384 -0.29660878 -0.1840387 -0.052070275 -0.021748932 0.05320426 0.23890051
0.26442054 0.17145376 -0.30383804 -0.20137323 -0.10062411 -0.025409747 0.004925289 0.099433996
0.21704096 0.25538656 0.17064406 -0.058876716 -0.4124731 0.1816916 0.40733403 -0.47306195
-0.3286366 0.4505231 0.31656733 -0.12783068 -0.15205367 -0.2327479 0.41167483 0.22548176
-0.4079247 -0.109531984 0.13152753 0.15876782 -0.067432836 -0.107350335 -0.1173566 0.5226227
0.20521328 -0.3771864 -0.056739368 0.016933147 0.032214858 -0.16334173 -0.35908765 -0.060507823
0.276551 -0.4340582 -0.030373445 0.40060493 -0.35572582 -0.008122758 0.24744183 -0.2925995
0.00057970075 0.24958803 -0.30617136 0.08569514 0.39137092 -0.23396002 0.064102285 0.20743632
-0.25136068 -0.011043297 0.17777593 -0.25949192 0.07309015 0.3182899 -0.1689844 0.06681961
0.16442223 0.38122734 0.15976506 -0.043091625 -0.3201058 -0.64144236 -0.106542915 0.035896517
0.29653454 0.23230442 0.34285548 0.1803647 0.0056352057 -0.3348644 -0.56963944 -0.07241836
-0.011291696 0.28828168 0.17740329 0.29665416 0.123113535 -0.051201556 -0.2991356 -0.5129508
-0.048344545 -0.0054362486 0.3168277 0.20147133 -0.043876756 -0.071801364 -0.026131552 -0.069286086
0.033479024 -0.058976695 -0.13964094 -0.069585815 -0.042617086 0.2944398 0.22434989 0.26598993
0.27423212 0.30453396 0.22156908 0.25362736 0.25298333 0.2756922 -0.18327111 -0.24971865
-0.17258228 -0.21518894 -0.2032229 -0.2434854 -0.14056593 -0.18914309 -0.16936311 -0.0857151
0.40923655 -0.29418308 -0.17997953 0.48036036 -0.34187406 -0.09149805 0.29033086 -0.1628945
-0.15051182 0.37578982 -0.2599712 -0.2530723 0.45382422 -0.28553835 -0.13661669 0.2851338
-0.10195025 -0.10877349 0.35747948 -0.20591052 -0.19696648 0.44684365 -0.22864087 -0.1447211
0.2391487 -0.12008759 0.10534695 0.22511238 0.37086493 -0.14340745 0.07002532 0.23541789
-0.47568268 -0.00770967 0.15935025 -0.04313114 -0.09892662 -0.078074664 -0.004180147 -0.074126385
-0.08695176 -0.07718624 0.06929074 -0.0018053441 0.008594997 -0.11411318 -0.17361785 0.14869934
-0.02870414 -0.1715717 0.13669735 0.15610668 -0.050675552 -0.26233914 -0.38928536 -0.36228928
0.14159581 -0.004176039 -0.1251357 0.4185716 0.21517941 0.08072134 -0.2263693 -0.31143236
-0.31000984 0.18721625 0.08232182 -0.061488543 0.42192277 0.23728941 0.08085983 -0.14205158
-0.22697003 -0.2480882 0.196438 0.095428236 -0.06461129 0.33035815 0.14818217 0.0038308126
0.2579206 0.36518267 0.04547355 0.33057722 0.032145396 -0.31739557 -0.04575463 -0.31891495
-0.26366952 0.23266967 0.36570013 0.097734295 0.24726135 -0.025122026 -0.28563124 -0.17163013
-0.38237414 -0.19268999 0.25981137 0.2964843 -0.04934203 0.29222062 -0.034282796 -0.3124176
-0.105448075 -0.31248397 -0.10067712 -0.31676286 -0.21942805 -0.33228338 -0.2843885 -0.32751036
-0.3497421 -0.34578758 -0.38580364 -0.31809318 0.21850716 0.23407458 0.17687416 0.28256586

conv2d_5/bias:0 f4 [28]
00000000: 60c6 b4be 43b4 683d e570 bdbe 4952 313c
00000010: fff7 9c3d f3ad d6bb f51c 01bd 270b 7abe
00000020: c378 363a 0a72 fb3e 156e 163c 2b49 d33e
00000030: d438 a1be afde a4bd 8169 dd3c 303c dc3d
00000040: f6c6 dabe 0f95 da3d ca2c d63e b9cf 963d
00000050: c069 03ba f8af 0d3e 8aaa 963c 3d92 043e
00000060: 2d14 9f3b 7c22 8dbd 733a 11bf d2c8 95be
-0.35307598 0.056812536 -0.37000194 0.010822841 0.07664489 -0.006551498 -0.031521756 -0.24418317
0.0006960744 0.49110442 0.009181519 0.4126676 -0.3148867 -0.08050286 0.027027847 0.10753667
-0.4272992 0.10672962 0.41831046 0.07363839 -0.00050130114 0.13836658 0.018391866 0.1294641
0.0048547 -0.06891343 -0.5672981 -0.29254776

p_re_lu_5_initializer_10 f4 [1, 64, 1, 1]
00000000: 86b4 67bd aeb7 c63b ef1f 8cbc c780 e9bd
00000010: afde 31be c52f b23c 6a2a aabd c3c9 07be
00000020: 1462 26bd 9046 86bd 8d8c 29be 33bd 0fbf
00000030: 5e86 8bbe cf37 cb3d e770 ccbd 2f02 b2bc
00000040: 8cee 9cbd a4b8 07be 7216 37be fa2b eb3c
00000050: 6a71 45be ef30 093c 1e6a 393e e211 d2bc
00000060: f055 7abd cb7c 763d e576 acbe 979e 78be
00000070: d0ed e0be 0312 94be 7cfc 7dbe b727 0bbe
00000080: 7683 78bd 219a 043e 25d0 28be eaa9 2fbe
00000090: 0f3e e8bb 158c a23c 0b4e db3d e33d 2a3d
000000a0: 3c88 1bbe fde3 39bd 2ed7 7ebd ea05 08bc
000000b0: dac5 83be a021 91be da58 16be 9fa6 4ebe
000000c0: 84cf c53d f108 ed3d dd65 16be 2b53 9ebe
000000d0: 82b4 acbd af61 493d 577f 10bc 6f55 a3be
000000e0: d4fd 1bbe cd13 afbd 3095 3cbb b8d2 093d
000000f0: f104 62be 63cb 02be 1e89 67be 28fc adbe
-0.056568645 0.006064377 -0.01710507 -0.114015155 -0.17370103 0.021751294 -0.08308871 -0.1326056
-0.04062088 -0.065564275 -0.16557522 -0.5614807 -0.27250952 0.09922754 -0.09982472 -0.021729557
-0.07662687 -0.13254029 -0.17879656 0.028707493 -0.19281545 0.008373483 0.18106887 -0.025643293
-0.061117113 0.060177606 -0.3368446 -0.24279247 -0.43931437 -0.28919992 -0.24803346 -0.13589369
-0.060672246 0.1294942 -0.16485651 -0.17154661 -0.007087476 0.019842187 0.10708245 0.041562926
-0.15188688 -0.045383442 -0.06221693 -0.008302191 -0.25736886 -0.28345966 -0.14682332 -0.20180748
0.09658721 0.11573971 -0.14687295 -0.30922827 -0.08432867 0.049165424 -0.008819423 -0.31901118
-0.15233546 -0.085486986 -0.0028775446 0.033648223 -0.22072197 -0.12772898 -0.226109 -0.33981442
